{
  "storage" : "model.espresso.weights",
  "analyses" : {

  },
  "properties" : {

  },
  "format_version" : 200,
  "metadata_in_weights" : [

  ],
  "layers" : [
    {
      "pad_r" : 0,
      "fused_relu" : 1,
      "fused_tanh" : 0,
      "debug_info" : "input.3",
      "pad_fill_mode" : 0,
      "pad_b" : 0,
      "pad_l" : 0,
      "top" : "input.5",
      "blob_weights" : 3,
      "K" : 3,
      "blob_biases" : 1,
      "stride_x" : 2,
      "name" : "input.3",
      "has_batch_norm" : 0,
      "type" : "convolution",
      "n_groups" : 1,
      "pad_t" : 0,
      "stride_y" : 2,
      "has_biases" : 1,
      "C" : 32,
      "bottom" : "input",
      "weights" : {

      },
      "Nx" : 3,
      "pad_mode" : 0,
      "pad_value" : 0,
      "Ny" : 3,
      "n_parallel" : 1
    },
    {
      "pad_r" : 0,
      "fused_relu" : 1,
      "fused_tanh" : 0,
      "debug_info" : "input.9",
      "pad_fill_mode" : 0,
      "pad_b" : 0,
      "pad_l" : 0,
      "top" : "input.11",
      "blob_weights" : 7,
      "K" : 32,
      "blob_biases" : 5,
      "name" : "input.9",
      "has_batch_norm" : 0,
      "type" : "convolution",
      "n_groups" : 1,
      "pad_t" : 0,
      "has_biases" : 1,
      "C" : 32,
      "bottom" : "input.5",
      "weights" : {

      },
      "Nx" : 3,
      "pad_mode" : 0,
      "pad_value" : 0,
      "Ny" : 3,
      "n_parallel" : 1
    },
    {
      "pad_r" : 1,
      "fused_relu" : 1,
      "fused_tanh" : 0,
      "debug_info" : "input.15",
      "pad_fill_mode" : 0,
      "pad_b" : 1,
      "pad_l" : 1,
      "top" : "input.17",
      "blob_weights" : 11,
      "K" : 32,
      "blob_biases" : 9,
      "name" : "input.15",
      "has_batch_norm" : 0,
      "type" : "convolution",
      "n_groups" : 1,
      "pad_t" : 1,
      "has_biases" : 1,
      "C" : 64,
      "bottom" : "input.11",
      "weights" : {

      },
      "Nx" : 3,
      "pad_mode" : 0,
      "pad_value" : 0,
      "Ny" : 3,
      "n_parallel" : 1
    },
    {
      "pad_r" : 0,
      "debug_info" : "input.19",
      "pad_fill_mode" : 0,
      "pad_b" : 0,
      "pad_l" : 0,
      "size_x" : 3,
      "top" : "input.19",
      "top_shape_style" : 0,
      "stride_x" : 2,
      "avg_or_max" : 1,
      "average_count_exclude_padding" : 1,
      "type" : "pool",
      "name" : "input.19",
      "pad_t" : 0,
      "stride_y" : 2,
      "bottom" : "input.17",
      "weights" : {

      },
      "pad_mode" : 2,
      "size_y" : 3,
      "pad_value" : 0
    },
    {
      "pad_r" : 0,
      "fused_relu" : 1,
      "fused_tanh" : 0,
      "debug_info" : "input.23",
      "pad_fill_mode" : 0,
      "pad_b" : 0,
      "pad_l" : 0,
      "top" : "input.25",
      "blob_weights" : 15,
      "K" : 64,
      "blob_biases" : 13,
      "name" : "input.23",
      "has_batch_norm" : 0,
      "type" : "convolution",
      "n_groups" : 1,
      "pad_t" : 0,
      "has_biases" : 1,
      "C" : 80,
      "bottom" : "input.19",
      "weights" : {

      },
      "Nx" : 1,
      "pad_mode" : 0,
      "pad_value" : 0,
      "Ny" : 1,
      "n_parallel" : 1
    },
    {
      "pad_r" : 0,
      "fused_relu" : 1,
      "fused_tanh" : 0,
      "debug_info" : "input.29",
      "pad_fill_mode" : 0,
      "pad_b" : 0,
      "pad_l" : 0,
      "top" : "input.31",
      "blob_weights" : 19,
      "K" : 80,
      "blob_biases" : 17,
      "name" : "input.29",
      "has_batch_norm" : 0,
      "type" : "convolution",
      "n_groups" : 1,
      "pad_t" : 0,
      "has_biases" : 1,
      "C" : 192,
      "bottom" : "input.25",
      "weights" : {

      },
      "Nx" : 3,
      "pad_mode" : 0,
      "pad_value" : 0,
      "Ny" : 3,
      "n_parallel" : 1
    },
    {
      "pad_r" : 0,
      "fused_relu" : 1,
      "fused_tanh" : 0,
      "debug_info" : "input.35",
      "pad_fill_mode" : 0,
      "pad_b" : 0,
      "pad_l" : 0,
      "top" : "input.37",
      "blob_weights" : 23,
      "K" : 192,
      "blob_biases" : 21,
      "stride_x" : 2,
      "name" : "input.35",
      "has_batch_norm" : 0,
      "type" : "convolution",
      "n_groups" : 1,
      "pad_t" : 0,
      "stride_y" : 2,
      "has_biases" : 1,
      "C" : 256,
      "bottom" : "input.31",
      "weights" : {

      },
      "Nx" : 3,
      "pad_mode" : 0,
      "pad_value" : 0,
      "Ny" : 3,
      "n_parallel" : 1
    },
    {
      "pad_r" : 0,
      "fused_relu" : 1,
      "fused_tanh" : 0,
      "debug_info" : "input.41",
      "pad_fill_mode" : 0,
      "pad_b" : 0,
      "pad_l" : 0,
      "top" : "x0.1",
      "blob_weights" : 27,
      "K" : 256,
      "blob_biases" : 25,
      "name" : "input.41",
      "has_batch_norm" : 0,
      "type" : "convolution",
      "n_groups" : 1,
      "pad_t" : 0,
      "has_biases" : 1,
      "C" : 32,
      "bottom" : "input.37",
      "weights" : {

      },
      "Nx" : 1,
      "pad_mode" : 0,
      "pad_value" : 0,
      "Ny" : 1,
      "n_parallel" : 1
    },
    {
      "pad_r" : 0,
      "fused_relu" : 1,
      "fused_tanh" : 0,
      "debug_info" : "input.45",
      "pad_fill_mode" : 0,
      "pad_b" : 0,
      "pad_l" : 0,
      "top" : "input.47",
      "blob_weights" : 31,
      "K" : 256,
      "blob_biases" : 29,
      "name" : "input.45",
      "has_batch_norm" : 0,
      "type" : "convolution",
      "n_groups" : 1,
      "pad_t" : 0,
      "has_biases" : 1,
      "C" : 32,
      "bottom" : "input.37",
      "weights" : {

      },
      "Nx" : 1,
      "pad_mode" : 0,
      "pad_value" : 0,
      "Ny" : 1,
      "n_parallel" : 1
    },
    {
      "pad_r" : 1,
      "fused_relu" : 1,
      "fused_tanh" : 0,
      "debug_info" : "input.51",
      "pad_fill_mode" : 0,
      "pad_b" : 1,
      "pad_l" : 1,
      "top" : "x1.1",
      "blob_weights" : 35,
      "K" : 32,
      "blob_biases" : 33,
      "name" : "input.51",
      "has_batch_norm" : 0,
      "type" : "convolution",
      "n_groups" : 1,
      "pad_t" : 1,
      "has_biases" : 1,
      "C" : 32,
      "bottom" : "input.47",
      "weights" : {

      },
      "Nx" : 3,
      "pad_mode" : 0,
      "pad_value" : 0,
      "Ny" : 3,
      "n_parallel" : 1
    },
    {
      "pad_r" : 0,
      "fused_relu" : 1,
      "fused_tanh" : 0,
      "debug_info" : "input.55",
      "pad_fill_mode" : 0,
      "pad_b" : 0,
      "pad_l" : 0,
      "top" : "input.57",
      "blob_weights" : 39,
      "K" : 256,
      "blob_biases" : 37,
      "name" : "input.55",
      "has_batch_norm" : 0,
      "type" : "convolution",
      "n_groups" : 1,
      "pad_t" : 0,
      "has_biases" : 1,
      "C" : 32,
      "bottom" : "input.37",
      "weights" : {

      },
      "Nx" : 1,
      "pad_mode" : 0,
      "pad_value" : 0,
      "Ny" : 1,
      "n_parallel" : 1
    },
    {
      "pad_r" : 1,
      "fused_relu" : 1,
      "fused_tanh" : 0,
      "debug_info" : "input.61",
      "pad_fill_mode" : 0,
      "pad_b" : 1,
      "pad_l" : 1,
      "top" : "input.63",
      "blob_weights" : 43,
      "K" : 32,
      "blob_biases" : 41,
      "name" : "input.61",
      "has_batch_norm" : 0,
      "type" : "convolution",
      "n_groups" : 1,
      "pad_t" : 1,
      "has_biases" : 1,
      "C" : 32,
      "bottom" : "input.57",
      "weights" : {

      },
      "Nx" : 3,
      "pad_mode" : 0,
      "pad_value" : 0,
      "Ny" : 3,
      "n_parallel" : 1
    },
    {
      "pad_r" : 1,
      "fused_relu" : 1,
      "fused_tanh" : 0,
      "debug_info" : "input.67",
      "pad_fill_mode" : 0,
      "pad_b" : 1,
      "pad_l" : 1,
      "top" : "x2.1",
      "blob_weights" : 47,
      "K" : 32,
      "blob_biases" : 45,
      "name" : "input.67",
      "has_batch_norm" : 0,
      "type" : "convolution",
      "n_groups" : 1,
      "pad_t" : 1,
      "has_biases" : 1,
      "C" : 32,
      "bottom" : "input.63",
      "weights" : {

      },
      "Nx" : 3,
      "pad_mode" : 0,
      "pad_value" : 0,
      "Ny" : 3,
      "n_parallel" : 1
    },
    {
      "weights" : {

      },
      "debug_info" : "input.69",
      "top" : "input.69",
      "type" : "concat",
      "name" : "input.69",
      "bottom" : "x0.1,x1.1,x2.1"
    },
    {
      "pad_r" : 0,
      "fused_relu" : 0,
      "fused_tanh" : 0,
      "debug_info" : "269",
      "pad_fill_mode" : 0,
      "pad_b" : 0,
      "pad_l" : 0,
      "top" : "269",
      "blob_weights" : 51,
      "K" : 96,
      "blob_biases" : 49,
      "name" : "269",
      "has_batch_norm" : 0,
      "type" : "convolution",
      "n_groups" : 1,
      "pad_t" : 0,
      "has_biases" : 1,
      "C" : 256,
      "bottom" : "input.69",
      "weights" : {

      },
      "Nx" : 1,
      "pad_mode" : 0,
      "pad_value" : 0,
      "Ny" : 1,
      "n_parallel" : 1
    },
    {
      "bottom" : "269,input.37",
      "alpha" : 1,
      "operation" : 0,
      "weights" : {

      },
      "fused_relu" : 0,
      "debug_info" : "input.71",
      "top" : "input.71",
      "type" : "elementwise",
      "name" : "input.71",
      "beta" : 0
    },
    {
      "bottom" : "input.71",
      "weights" : {

      },
      "mode" : 0,
      "debug_info" : "input.73",
      "top" : "input.73",
      "type" : "activation",
      "name" : "input.73"
    },
    {
      "pad_r" : 0,
      "fused_relu" : 1,
      "fused_tanh" : 0,
      "debug_info" : "input.77",
      "pad_fill_mode" : 0,
      "pad_b" : 0,
      "pad_l" : 0,
      "top" : "x0.3",
      "blob_weights" : 55,
      "K" : 256,
      "blob_biases" : 53,
      "name" : "input.77",
      "has_batch_norm" : 0,
      "type" : "convolution",
      "n_groups" : 1,
      "pad_t" : 0,
      "has_biases" : 1,
      "C" : 32,
      "bottom" : "input.73",
      "weights" : {

      },
      "Nx" : 1,
      "pad_mode" : 0,
      "pad_value" : 0,
      "Ny" : 1,
      "n_parallel" : 1
    },
    {
      "pad_r" : 0,
      "fused_relu" : 1,
      "fused_tanh" : 0,
      "debug_info" : "input.81",
      "pad_fill_mode" : 0,
      "pad_b" : 0,
      "pad_l" : 0,
      "top" : "input.83",
      "blob_weights" : 59,
      "K" : 256,
      "blob_biases" : 57,
      "name" : "input.81",
      "has_batch_norm" : 0,
      "type" : "convolution",
      "n_groups" : 1,
      "pad_t" : 0,
      "has_biases" : 1,
      "C" : 32,
      "bottom" : "input.73",
      "weights" : {

      },
      "Nx" : 1,
      "pad_mode" : 0,
      "pad_value" : 0,
      "Ny" : 1,
      "n_parallel" : 1
    },
    {
      "pad_r" : 1,
      "fused_relu" : 1,
      "fused_tanh" : 0,
      "debug_info" : "input.87",
      "pad_fill_mode" : 0,
      "pad_b" : 1,
      "pad_l" : 1,
      "top" : "x1.3",
      "blob_weights" : 63,
      "K" : 32,
      "blob_biases" : 61,
      "name" : "input.87",
      "has_batch_norm" : 0,
      "type" : "convolution",
      "n_groups" : 1,
      "pad_t" : 1,
      "has_biases" : 1,
      "C" : 32,
      "bottom" : "input.83",
      "weights" : {

      },
      "Nx" : 3,
      "pad_mode" : 0,
      "pad_value" : 0,
      "Ny" : 3,
      "n_parallel" : 1
    },
    {
      "pad_r" : 0,
      "fused_relu" : 1,
      "fused_tanh" : 0,
      "debug_info" : "input.91",
      "pad_fill_mode" : 0,
      "pad_b" : 0,
      "pad_l" : 0,
      "top" : "input.93",
      "blob_weights" : 67,
      "K" : 256,
      "blob_biases" : 65,
      "name" : "input.91",
      "has_batch_norm" : 0,
      "type" : "convolution",
      "n_groups" : 1,
      "pad_t" : 0,
      "has_biases" : 1,
      "C" : 32,
      "bottom" : "input.73",
      "weights" : {

      },
      "Nx" : 1,
      "pad_mode" : 0,
      "pad_value" : 0,
      "Ny" : 1,
      "n_parallel" : 1
    },
    {
      "pad_r" : 1,
      "fused_relu" : 1,
      "fused_tanh" : 0,
      "debug_info" : "input.97",
      "pad_fill_mode" : 0,
      "pad_b" : 1,
      "pad_l" : 1,
      "top" : "input.99",
      "blob_weights" : 71,
      "K" : 32,
      "blob_biases" : 69,
      "name" : "input.97",
      "has_batch_norm" : 0,
      "type" : "convolution",
      "n_groups" : 1,
      "pad_t" : 1,
      "has_biases" : 1,
      "C" : 32,
      "bottom" : "input.93",
      "weights" : {

      },
      "Nx" : 3,
      "pad_mode" : 0,
      "pad_value" : 0,
      "Ny" : 3,
      "n_parallel" : 1
    },
    {
      "pad_r" : 1,
      "fused_relu" : 1,
      "fused_tanh" : 0,
      "debug_info" : "input.103",
      "pad_fill_mode" : 0,
      "pad_b" : 1,
      "pad_l" : 1,
      "top" : "x2.3",
      "blob_weights" : 75,
      "K" : 32,
      "blob_biases" : 73,
      "name" : "input.103",
      "has_batch_norm" : 0,
      "type" : "convolution",
      "n_groups" : 1,
      "pad_t" : 1,
      "has_biases" : 1,
      "C" : 32,
      "bottom" : "input.99",
      "weights" : {

      },
      "Nx" : 3,
      "pad_mode" : 0,
      "pad_value" : 0,
      "Ny" : 3,
      "n_parallel" : 1
    },
    {
      "weights" : {

      },
      "debug_info" : "input.105",
      "top" : "input.105",
      "type" : "concat",
      "name" : "input.105",
      "bottom" : "x0.3,x1.3,x2.3"
    },
    {
      "pad_r" : 0,
      "fused_relu" : 0,
      "fused_tanh" : 0,
      "debug_info" : "375",
      "pad_fill_mode" : 0,
      "pad_b" : 0,
      "pad_l" : 0,
      "top" : "375",
      "blob_weights" : 79,
      "K" : 96,
      "blob_biases" : 77,
      "name" : "375",
      "has_batch_norm" : 0,
      "type" : "convolution",
      "n_groups" : 1,
      "pad_t" : 0,
      "has_biases" : 1,
      "C" : 256,
      "bottom" : "input.105",
      "weights" : {

      },
      "Nx" : 1,
      "pad_mode" : 0,
      "pad_value" : 0,
      "Ny" : 1,
      "n_parallel" : 1
    },
    {
      "bottom" : "375,input.73",
      "alpha" : 1,
      "operation" : 0,
      "weights" : {

      },
      "fused_relu" : 0,
      "debug_info" : "input.107",
      "top" : "input.107",
      "type" : "elementwise",
      "name" : "input.107",
      "beta" : 0
    },
    {
      "bottom" : "input.107",
      "weights" : {

      },
      "mode" : 0,
      "debug_info" : "input.109",
      "top" : "input.109",
      "type" : "activation",
      "name" : "input.109"
    },
    {
      "pad_r" : 0,
      "fused_relu" : 1,
      "fused_tanh" : 0,
      "debug_info" : "input.113",
      "pad_fill_mode" : 0,
      "pad_b" : 0,
      "pad_l" : 0,
      "top" : "x0.5",
      "blob_weights" : 83,
      "K" : 256,
      "blob_biases" : 81,
      "name" : "input.113",
      "has_batch_norm" : 0,
      "type" : "convolution",
      "n_groups" : 1,
      "pad_t" : 0,
      "has_biases" : 1,
      "C" : 32,
      "bottom" : "input.109",
      "weights" : {

      },
      "Nx" : 1,
      "pad_mode" : 0,
      "pad_value" : 0,
      "Ny" : 1,
      "n_parallel" : 1
    },
    {
      "pad_r" : 0,
      "fused_relu" : 1,
      "fused_tanh" : 0,
      "debug_info" : "input.117",
      "pad_fill_mode" : 0,
      "pad_b" : 0,
      "pad_l" : 0,
      "top" : "input.119",
      "blob_weights" : 87,
      "K" : 256,
      "blob_biases" : 85,
      "name" : "input.117",
      "has_batch_norm" : 0,
      "type" : "convolution",
      "n_groups" : 1,
      "pad_t" : 0,
      "has_biases" : 1,
      "C" : 32,
      "bottom" : "input.109",
      "weights" : {

      },
      "Nx" : 1,
      "pad_mode" : 0,
      "pad_value" : 0,
      "Ny" : 1,
      "n_parallel" : 1
    },
    {
      "pad_r" : 1,
      "fused_relu" : 1,
      "fused_tanh" : 0,
      "debug_info" : "input.123",
      "pad_fill_mode" : 0,
      "pad_b" : 1,
      "pad_l" : 1,
      "top" : "x1.5",
      "blob_weights" : 91,
      "K" : 32,
      "blob_biases" : 89,
      "name" : "input.123",
      "has_batch_norm" : 0,
      "type" : "convolution",
      "n_groups" : 1,
      "pad_t" : 1,
      "has_biases" : 1,
      "C" : 32,
      "bottom" : "input.119",
      "weights" : {

      },
      "Nx" : 3,
      "pad_mode" : 0,
      "pad_value" : 0,
      "Ny" : 3,
      "n_parallel" : 1
    },
    {
      "pad_r" : 0,
      "fused_relu" : 1,
      "fused_tanh" : 0,
      "debug_info" : "input.127",
      "pad_fill_mode" : 0,
      "pad_b" : 0,
      "pad_l" : 0,
      "top" : "input.129",
      "blob_weights" : 95,
      "K" : 256,
      "blob_biases" : 93,
      "name" : "input.127",
      "has_batch_norm" : 0,
      "type" : "convolution",
      "n_groups" : 1,
      "pad_t" : 0,
      "has_biases" : 1,
      "C" : 32,
      "bottom" : "input.109",
      "weights" : {

      },
      "Nx" : 1,
      "pad_mode" : 0,
      "pad_value" : 0,
      "Ny" : 1,
      "n_parallel" : 1
    },
    {
      "pad_r" : 1,
      "fused_relu" : 1,
      "fused_tanh" : 0,
      "debug_info" : "input.133",
      "pad_fill_mode" : 0,
      "pad_b" : 1,
      "pad_l" : 1,
      "top" : "input.135",
      "blob_weights" : 99,
      "K" : 32,
      "blob_biases" : 97,
      "name" : "input.133",
      "has_batch_norm" : 0,
      "type" : "convolution",
      "n_groups" : 1,
      "pad_t" : 1,
      "has_biases" : 1,
      "C" : 32,
      "bottom" : "input.129",
      "weights" : {

      },
      "Nx" : 3,
      "pad_mode" : 0,
      "pad_value" : 0,
      "Ny" : 3,
      "n_parallel" : 1
    },
    {
      "pad_r" : 1,
      "fused_relu" : 1,
      "fused_tanh" : 0,
      "debug_info" : "input.139",
      "pad_fill_mode" : 0,
      "pad_b" : 1,
      "pad_l" : 1,
      "top" : "x2.5",
      "blob_weights" : 103,
      "K" : 32,
      "blob_biases" : 101,
      "name" : "input.139",
      "has_batch_norm" : 0,
      "type" : "convolution",
      "n_groups" : 1,
      "pad_t" : 1,
      "has_biases" : 1,
      "C" : 32,
      "bottom" : "input.135",
      "weights" : {

      },
      "Nx" : 3,
      "pad_mode" : 0,
      "pad_value" : 0,
      "Ny" : 3,
      "n_parallel" : 1
    },
    {
      "weights" : {

      },
      "debug_info" : "input.141",
      "top" : "input.141",
      "type" : "concat",
      "name" : "input.141",
      "bottom" : "x0.5,x1.5,x2.5"
    },
    {
      "pad_r" : 0,
      "fused_relu" : 0,
      "fused_tanh" : 0,
      "debug_info" : "481",
      "pad_fill_mode" : 0,
      "pad_b" : 0,
      "pad_l" : 0,
      "top" : "481",
      "blob_weights" : 107,
      "K" : 96,
      "blob_biases" : 105,
      "name" : "481",
      "has_batch_norm" : 0,
      "type" : "convolution",
      "n_groups" : 1,
      "pad_t" : 0,
      "has_biases" : 1,
      "C" : 256,
      "bottom" : "input.141",
      "weights" : {

      },
      "Nx" : 1,
      "pad_mode" : 0,
      "pad_value" : 0,
      "Ny" : 1,
      "n_parallel" : 1
    },
    {
      "bottom" : "481,input.109",
      "alpha" : 1,
      "operation" : 0,
      "weights" : {

      },
      "fused_relu" : 0,
      "debug_info" : "input.143",
      "top" : "input.143",
      "type" : "elementwise",
      "name" : "input.143",
      "beta" : 0
    },
    {
      "bottom" : "input.143",
      "weights" : {

      },
      "mode" : 0,
      "debug_info" : "input.145",
      "top" : "input.145",
      "type" : "activation",
      "name" : "input.145"
    },
    {
      "pad_r" : 0,
      "fused_relu" : 1,
      "fused_tanh" : 0,
      "debug_info" : "input.149",
      "pad_fill_mode" : 0,
      "pad_b" : 0,
      "pad_l" : 0,
      "top" : "x0.7",
      "blob_weights" : 111,
      "K" : 256,
      "blob_biases" : 109,
      "name" : "input.149",
      "has_batch_norm" : 0,
      "type" : "convolution",
      "n_groups" : 1,
      "pad_t" : 0,
      "has_biases" : 1,
      "C" : 32,
      "bottom" : "input.145",
      "weights" : {

      },
      "Nx" : 1,
      "pad_mode" : 0,
      "pad_value" : 0,
      "Ny" : 1,
      "n_parallel" : 1
    },
    {
      "pad_r" : 0,
      "fused_relu" : 1,
      "fused_tanh" : 0,
      "debug_info" : "input.153",
      "pad_fill_mode" : 0,
      "pad_b" : 0,
      "pad_l" : 0,
      "top" : "input.155",
      "blob_weights" : 115,
      "K" : 256,
      "blob_biases" : 113,
      "name" : "input.153",
      "has_batch_norm" : 0,
      "type" : "convolution",
      "n_groups" : 1,
      "pad_t" : 0,
      "has_biases" : 1,
      "C" : 32,
      "bottom" : "input.145",
      "weights" : {

      },
      "Nx" : 1,
      "pad_mode" : 0,
      "pad_value" : 0,
      "Ny" : 1,
      "n_parallel" : 1
    },
    {
      "pad_r" : 1,
      "fused_relu" : 1,
      "fused_tanh" : 0,
      "debug_info" : "input.159",
      "pad_fill_mode" : 0,
      "pad_b" : 1,
      "pad_l" : 1,
      "top" : "x1.7",
      "blob_weights" : 119,
      "K" : 32,
      "blob_biases" : 117,
      "name" : "input.159",
      "has_batch_norm" : 0,
      "type" : "convolution",
      "n_groups" : 1,
      "pad_t" : 1,
      "has_biases" : 1,
      "C" : 32,
      "bottom" : "input.155",
      "weights" : {

      },
      "Nx" : 3,
      "pad_mode" : 0,
      "pad_value" : 0,
      "Ny" : 3,
      "n_parallel" : 1
    },
    {
      "pad_r" : 0,
      "fused_relu" : 1,
      "fused_tanh" : 0,
      "debug_info" : "input.163",
      "pad_fill_mode" : 0,
      "pad_b" : 0,
      "pad_l" : 0,
      "top" : "input.165",
      "blob_weights" : 123,
      "K" : 256,
      "blob_biases" : 121,
      "name" : "input.163",
      "has_batch_norm" : 0,
      "type" : "convolution",
      "n_groups" : 1,
      "pad_t" : 0,
      "has_biases" : 1,
      "C" : 32,
      "bottom" : "input.145",
      "weights" : {

      },
      "Nx" : 1,
      "pad_mode" : 0,
      "pad_value" : 0,
      "Ny" : 1,
      "n_parallel" : 1
    },
    {
      "pad_r" : 1,
      "fused_relu" : 1,
      "fused_tanh" : 0,
      "debug_info" : "input.169",
      "pad_fill_mode" : 0,
      "pad_b" : 1,
      "pad_l" : 1,
      "top" : "input.171",
      "blob_weights" : 127,
      "K" : 32,
      "blob_biases" : 125,
      "name" : "input.169",
      "has_batch_norm" : 0,
      "type" : "convolution",
      "n_groups" : 1,
      "pad_t" : 1,
      "has_biases" : 1,
      "C" : 32,
      "bottom" : "input.165",
      "weights" : {

      },
      "Nx" : 3,
      "pad_mode" : 0,
      "pad_value" : 0,
      "Ny" : 3,
      "n_parallel" : 1
    },
    {
      "pad_r" : 1,
      "fused_relu" : 1,
      "fused_tanh" : 0,
      "debug_info" : "input.175",
      "pad_fill_mode" : 0,
      "pad_b" : 1,
      "pad_l" : 1,
      "top" : "x2.7",
      "blob_weights" : 131,
      "K" : 32,
      "blob_biases" : 129,
      "name" : "input.175",
      "has_batch_norm" : 0,
      "type" : "convolution",
      "n_groups" : 1,
      "pad_t" : 1,
      "has_biases" : 1,
      "C" : 32,
      "bottom" : "input.171",
      "weights" : {

      },
      "Nx" : 3,
      "pad_mode" : 0,
      "pad_value" : 0,
      "Ny" : 3,
      "n_parallel" : 1
    },
    {
      "weights" : {

      },
      "debug_info" : "input.177",
      "top" : "input.177",
      "type" : "concat",
      "name" : "input.177",
      "bottom" : "x0.7,x1.7,x2.7"
    },
    {
      "pad_r" : 0,
      "fused_relu" : 0,
      "fused_tanh" : 0,
      "debug_info" : "587",
      "pad_fill_mode" : 0,
      "pad_b" : 0,
      "pad_l" : 0,
      "top" : "587",
      "blob_weights" : 135,
      "K" : 96,
      "blob_biases" : 133,
      "name" : "587",
      "has_batch_norm" : 0,
      "type" : "convolution",
      "n_groups" : 1,
      "pad_t" : 0,
      "has_biases" : 1,
      "C" : 256,
      "bottom" : "input.177",
      "weights" : {

      },
      "Nx" : 1,
      "pad_mode" : 0,
      "pad_value" : 0,
      "Ny" : 1,
      "n_parallel" : 1
    },
    {
      "bottom" : "587,input.145",
      "alpha" : 1,
      "operation" : 0,
      "weights" : {

      },
      "fused_relu" : 0,
      "debug_info" : "input.179",
      "top" : "input.179",
      "type" : "elementwise",
      "name" : "input.179",
      "beta" : 0
    },
    {
      "bottom" : "input.179",
      "weights" : {

      },
      "mode" : 0,
      "debug_info" : "input.181",
      "top" : "input.181",
      "type" : "activation",
      "name" : "input.181"
    },
    {
      "pad_r" : 0,
      "fused_relu" : 1,
      "fused_tanh" : 0,
      "debug_info" : "input.185",
      "pad_fill_mode" : 0,
      "pad_b" : 0,
      "pad_l" : 0,
      "top" : "x0.9",
      "blob_weights" : 139,
      "K" : 256,
      "blob_biases" : 137,
      "name" : "input.185",
      "has_batch_norm" : 0,
      "type" : "convolution",
      "n_groups" : 1,
      "pad_t" : 0,
      "has_biases" : 1,
      "C" : 32,
      "bottom" : "input.181",
      "weights" : {

      },
      "Nx" : 1,
      "pad_mode" : 0,
      "pad_value" : 0,
      "Ny" : 1,
      "n_parallel" : 1
    },
    {
      "pad_r" : 0,
      "fused_relu" : 1,
      "fused_tanh" : 0,
      "debug_info" : "input.189",
      "pad_fill_mode" : 0,
      "pad_b" : 0,
      "pad_l" : 0,
      "top" : "input.191",
      "blob_weights" : 143,
      "K" : 256,
      "blob_biases" : 141,
      "name" : "input.189",
      "has_batch_norm" : 0,
      "type" : "convolution",
      "n_groups" : 1,
      "pad_t" : 0,
      "has_biases" : 1,
      "C" : 32,
      "bottom" : "input.181",
      "weights" : {

      },
      "Nx" : 1,
      "pad_mode" : 0,
      "pad_value" : 0,
      "Ny" : 1,
      "n_parallel" : 1
    },
    {
      "pad_r" : 1,
      "fused_relu" : 1,
      "fused_tanh" : 0,
      "debug_info" : "input.195",
      "pad_fill_mode" : 0,
      "pad_b" : 1,
      "pad_l" : 1,
      "top" : "x1.9",
      "blob_weights" : 147,
      "K" : 32,
      "blob_biases" : 145,
      "name" : "input.195",
      "has_batch_norm" : 0,
      "type" : "convolution",
      "n_groups" : 1,
      "pad_t" : 1,
      "has_biases" : 1,
      "C" : 32,
      "bottom" : "input.191",
      "weights" : {

      },
      "Nx" : 3,
      "pad_mode" : 0,
      "pad_value" : 0,
      "Ny" : 3,
      "n_parallel" : 1
    },
    {
      "pad_r" : 0,
      "fused_relu" : 1,
      "fused_tanh" : 0,
      "debug_info" : "input.199",
      "pad_fill_mode" : 0,
      "pad_b" : 0,
      "pad_l" : 0,
      "top" : "input.201",
      "blob_weights" : 151,
      "K" : 256,
      "blob_biases" : 149,
      "name" : "input.199",
      "has_batch_norm" : 0,
      "type" : "convolution",
      "n_groups" : 1,
      "pad_t" : 0,
      "has_biases" : 1,
      "C" : 32,
      "bottom" : "input.181",
      "weights" : {

      },
      "Nx" : 1,
      "pad_mode" : 0,
      "pad_value" : 0,
      "Ny" : 1,
      "n_parallel" : 1
    },
    {
      "pad_r" : 1,
      "fused_relu" : 1,
      "fused_tanh" : 0,
      "debug_info" : "input.205",
      "pad_fill_mode" : 0,
      "pad_b" : 1,
      "pad_l" : 1,
      "top" : "input.207",
      "blob_weights" : 155,
      "K" : 32,
      "blob_biases" : 153,
      "name" : "input.205",
      "has_batch_norm" : 0,
      "type" : "convolution",
      "n_groups" : 1,
      "pad_t" : 1,
      "has_biases" : 1,
      "C" : 32,
      "bottom" : "input.201",
      "weights" : {

      },
      "Nx" : 3,
      "pad_mode" : 0,
      "pad_value" : 0,
      "Ny" : 3,
      "n_parallel" : 1
    },
    {
      "pad_r" : 1,
      "fused_relu" : 1,
      "fused_tanh" : 0,
      "debug_info" : "input.211",
      "pad_fill_mode" : 0,
      "pad_b" : 1,
      "pad_l" : 1,
      "top" : "x2.9",
      "blob_weights" : 159,
      "K" : 32,
      "blob_biases" : 157,
      "name" : "input.211",
      "has_batch_norm" : 0,
      "type" : "convolution",
      "n_groups" : 1,
      "pad_t" : 1,
      "has_biases" : 1,
      "C" : 32,
      "bottom" : "input.207",
      "weights" : {

      },
      "Nx" : 3,
      "pad_mode" : 0,
      "pad_value" : 0,
      "Ny" : 3,
      "n_parallel" : 1
    },
    {
      "weights" : {

      },
      "debug_info" : "input.213",
      "top" : "input.213",
      "type" : "concat",
      "name" : "input.213",
      "bottom" : "x0.9,x1.9,x2.9"
    },
    {
      "pad_r" : 0,
      "fused_relu" : 0,
      "fused_tanh" : 0,
      "debug_info" : "693",
      "pad_fill_mode" : 0,
      "pad_b" : 0,
      "pad_l" : 0,
      "top" : "693",
      "blob_weights" : 163,
      "K" : 96,
      "blob_biases" : 161,
      "name" : "693",
      "has_batch_norm" : 0,
      "type" : "convolution",
      "n_groups" : 1,
      "pad_t" : 0,
      "has_biases" : 1,
      "C" : 256,
      "bottom" : "input.213",
      "weights" : {

      },
      "Nx" : 1,
      "pad_mode" : 0,
      "pad_value" : 0,
      "Ny" : 1,
      "n_parallel" : 1
    },
    {
      "bottom" : "693,input.181",
      "alpha" : 1,
      "operation" : 0,
      "weights" : {

      },
      "fused_relu" : 0,
      "debug_info" : "input.215",
      "top" : "input.215",
      "type" : "elementwise",
      "name" : "input.215",
      "beta" : 0
    },
    {
      "bottom" : "input.215",
      "weights" : {

      },
      "mode" : 0,
      "debug_info" : "input.217",
      "top" : "input.217",
      "type" : "activation",
      "name" : "input.217"
    },
    {
      "pad_r" : 0,
      "fused_relu" : 1,
      "fused_tanh" : 0,
      "debug_info" : "input.221",
      "pad_fill_mode" : 0,
      "pad_b" : 0,
      "pad_l" : 0,
      "top" : "x0.11",
      "blob_weights" : 167,
      "K" : 256,
      "blob_biases" : 165,
      "stride_x" : 2,
      "name" : "input.221",
      "has_batch_norm" : 0,
      "type" : "convolution",
      "n_groups" : 1,
      "pad_t" : 0,
      "stride_y" : 2,
      "has_biases" : 1,
      "C" : 384,
      "bottom" : "input.217",
      "weights" : {

      },
      "Nx" : 3,
      "pad_mode" : 0,
      "pad_value" : 0,
      "Ny" : 3,
      "n_parallel" : 1
    },
    {
      "pad_r" : 0,
      "fused_relu" : 1,
      "fused_tanh" : 0,
      "debug_info" : "input.225",
      "pad_fill_mode" : 0,
      "pad_b" : 0,
      "pad_l" : 0,
      "top" : "input.227",
      "blob_weights" : 171,
      "K" : 256,
      "blob_biases" : 169,
      "name" : "input.225",
      "has_batch_norm" : 0,
      "type" : "convolution",
      "n_groups" : 1,
      "pad_t" : 0,
      "has_biases" : 1,
      "C" : 192,
      "bottom" : "input.217",
      "weights" : {

      },
      "Nx" : 1,
      "pad_mode" : 0,
      "pad_value" : 0,
      "Ny" : 1,
      "n_parallel" : 1
    },
    {
      "pad_r" : 1,
      "fused_relu" : 1,
      "fused_tanh" : 0,
      "debug_info" : "input.231",
      "pad_fill_mode" : 0,
      "pad_b" : 1,
      "pad_l" : 1,
      "top" : "input.233",
      "blob_weights" : 175,
      "K" : 192,
      "blob_biases" : 173,
      "name" : "input.231",
      "has_batch_norm" : 0,
      "type" : "convolution",
      "n_groups" : 1,
      "pad_t" : 1,
      "has_biases" : 1,
      "C" : 192,
      "bottom" : "input.227",
      "weights" : {

      },
      "Nx" : 3,
      "pad_mode" : 0,
      "pad_value" : 0,
      "Ny" : 3,
      "n_parallel" : 1
    },
    {
      "pad_r" : 0,
      "fused_relu" : 1,
      "fused_tanh" : 0,
      "debug_info" : "input.237",
      "pad_fill_mode" : 0,
      "pad_b" : 0,
      "pad_l" : 0,
      "top" : "x1.11",
      "blob_weights" : 179,
      "K" : 192,
      "blob_biases" : 177,
      "stride_x" : 2,
      "name" : "input.237",
      "has_batch_norm" : 0,
      "type" : "convolution",
      "n_groups" : 1,
      "pad_t" : 0,
      "stride_y" : 2,
      "has_biases" : 1,
      "C" : 256,
      "bottom" : "input.233",
      "weights" : {

      },
      "Nx" : 3,
      "pad_mode" : 0,
      "pad_value" : 0,
      "Ny" : 3,
      "n_parallel" : 1
    },
    {
      "pad_r" : 0,
      "debug_info" : "x2.11",
      "pad_fill_mode" : 0,
      "pad_b" : 0,
      "pad_l" : 0,
      "size_x" : 3,
      "top" : "x2.11",
      "top_shape_style" : 0,
      "stride_x" : 2,
      "avg_or_max" : 1,
      "average_count_exclude_padding" : 1,
      "type" : "pool",
      "name" : "x2.11",
      "pad_t" : 0,
      "stride_y" : 2,
      "bottom" : "input.217",
      "weights" : {

      },
      "pad_mode" : 2,
      "size_y" : 3,
      "pad_value" : 0
    },
    {
      "weights" : {

      },
      "debug_info" : "input.239",
      "top" : "input.239",
      "type" : "concat",
      "name" : "input.239",
      "bottom" : "x0.11,x1.11,x2.11"
    },
    {
      "pad_r" : 0,
      "fused_relu" : 1,
      "fused_tanh" : 0,
      "debug_info" : "input.243",
      "pad_fill_mode" : 0,
      "pad_b" : 0,
      "pad_l" : 0,
      "top" : "x0.13",
      "blob_weights" : 183,
      "K" : 896,
      "blob_biases" : 181,
      "name" : "input.243",
      "has_batch_norm" : 0,
      "type" : "convolution",
      "n_groups" : 1,
      "pad_t" : 0,
      "has_biases" : 1,
      "C" : 128,
      "bottom" : "input.239",
      "weights" : {

      },
      "Nx" : 1,
      "pad_mode" : 0,
      "pad_value" : 0,
      "Ny" : 1,
      "n_parallel" : 1
    },
    {
      "pad_r" : 0,
      "fused_relu" : 1,
      "fused_tanh" : 0,
      "debug_info" : "input.247",
      "pad_fill_mode" : 0,
      "pad_b" : 0,
      "pad_l" : 0,
      "top" : "input.249",
      "blob_weights" : 187,
      "K" : 896,
      "blob_biases" : 185,
      "name" : "input.247",
      "has_batch_norm" : 0,
      "type" : "convolution",
      "n_groups" : 1,
      "pad_t" : 0,
      "has_biases" : 1,
      "C" : 128,
      "bottom" : "input.239",
      "weights" : {

      },
      "Nx" : 1,
      "pad_mode" : 0,
      "pad_value" : 0,
      "Ny" : 1,
      "n_parallel" : 1
    },
    {
      "pad_r" : 3,
      "fused_relu" : 1,
      "fused_tanh" : 0,
      "debug_info" : "input.253",
      "pad_fill_mode" : 0,
      "pad_b" : 0,
      "pad_l" : 3,
      "top" : "input.255",
      "blob_weights" : 191,
      "K" : 128,
      "blob_biases" : 189,
      "name" : "input.253",
      "has_batch_norm" : 0,
      "type" : "convolution",
      "n_groups" : 1,
      "pad_t" : 0,
      "has_biases" : 1,
      "C" : 128,
      "bottom" : "input.249",
      "weights" : {

      },
      "Nx" : 7,
      "pad_mode" : 0,
      "pad_value" : 0,
      "Ny" : 1,
      "n_parallel" : 1
    },
    {
      "pad_r" : 0,
      "fused_relu" : 1,
      "fused_tanh" : 0,
      "debug_info" : "input.259",
      "pad_fill_mode" : 0,
      "pad_b" : 3,
      "pad_l" : 0,
      "top" : "x1.13",
      "blob_weights" : 195,
      "K" : 128,
      "blob_biases" : 193,
      "name" : "input.259",
      "has_batch_norm" : 0,
      "type" : "convolution",
      "n_groups" : 1,
      "pad_t" : 3,
      "has_biases" : 1,
      "C" : 128,
      "bottom" : "input.255",
      "weights" : {

      },
      "Nx" : 1,
      "pad_mode" : 0,
      "pad_value" : 0,
      "Ny" : 7,
      "n_parallel" : 1
    },
    {
      "weights" : {

      },
      "debug_info" : "input.261",
      "top" : "input.261",
      "type" : "concat",
      "name" : "input.261",
      "bottom" : "x0.13,x1.13"
    },
    {
      "pad_r" : 0,
      "fused_relu" : 0,
      "fused_tanh" : 0,
      "debug_info" : "863",
      "pad_fill_mode" : 0,
      "pad_b" : 0,
      "pad_l" : 0,
      "top" : "863",
      "blob_weights" : 199,
      "K" : 256,
      "blob_biases" : 197,
      "name" : "863",
      "has_batch_norm" : 0,
      "type" : "convolution",
      "n_groups" : 1,
      "pad_t" : 0,
      "has_biases" : 1,
      "C" : 896,
      "bottom" : "input.261",
      "weights" : {

      },
      "Nx" : 1,
      "pad_mode" : 0,
      "pad_value" : 0,
      "Ny" : 1,
      "n_parallel" : 1
    },
    {
      "bottom" : "863,input.239",
      "alpha" : 1,
      "operation" : 0,
      "weights" : {

      },
      "fused_relu" : 0,
      "debug_info" : "input.263",
      "top" : "input.263",
      "type" : "elementwise",
      "name" : "input.263",
      "beta" : 0
    },
    {
      "bottom" : "input.263",
      "weights" : {

      },
      "mode" : 0,
      "debug_info" : "input.265",
      "top" : "input.265",
      "type" : "activation",
      "name" : "input.265"
    },
    {
      "pad_r" : 0,
      "fused_relu" : 1,
      "fused_tanh" : 0,
      "debug_info" : "input.269",
      "pad_fill_mode" : 0,
      "pad_b" : 0,
      "pad_l" : 0,
      "top" : "x0.15",
      "blob_weights" : 203,
      "K" : 896,
      "blob_biases" : 201,
      "name" : "input.269",
      "has_batch_norm" : 0,
      "type" : "convolution",
      "n_groups" : 1,
      "pad_t" : 0,
      "has_biases" : 1,
      "C" : 128,
      "bottom" : "input.265",
      "weights" : {

      },
      "Nx" : 1,
      "pad_mode" : 0,
      "pad_value" : 0,
      "Ny" : 1,
      "n_parallel" : 1
    },
    {
      "pad_r" : 0,
      "fused_relu" : 1,
      "fused_tanh" : 0,
      "debug_info" : "input.273",
      "pad_fill_mode" : 0,
      "pad_b" : 0,
      "pad_l" : 0,
      "top" : "input.275",
      "blob_weights" : 207,
      "K" : 896,
      "blob_biases" : 205,
      "name" : "input.273",
      "has_batch_norm" : 0,
      "type" : "convolution",
      "n_groups" : 1,
      "pad_t" : 0,
      "has_biases" : 1,
      "C" : 128,
      "bottom" : "input.265",
      "weights" : {

      },
      "Nx" : 1,
      "pad_mode" : 0,
      "pad_value" : 0,
      "Ny" : 1,
      "n_parallel" : 1
    },
    {
      "pad_r" : 3,
      "fused_relu" : 1,
      "fused_tanh" : 0,
      "debug_info" : "input.279",
      "pad_fill_mode" : 0,
      "pad_b" : 0,
      "pad_l" : 3,
      "top" : "input.281",
      "blob_weights" : 211,
      "K" : 128,
      "blob_biases" : 209,
      "name" : "input.279",
      "has_batch_norm" : 0,
      "type" : "convolution",
      "n_groups" : 1,
      "pad_t" : 0,
      "has_biases" : 1,
      "C" : 128,
      "bottom" : "input.275",
      "weights" : {

      },
      "Nx" : 7,
      "pad_mode" : 0,
      "pad_value" : 0,
      "Ny" : 1,
      "n_parallel" : 1
    },
    {
      "pad_r" : 0,
      "fused_relu" : 1,
      "fused_tanh" : 0,
      "debug_info" : "input.285",
      "pad_fill_mode" : 0,
      "pad_b" : 3,
      "pad_l" : 0,
      "top" : "x1.15",
      "blob_weights" : 215,
      "K" : 128,
      "blob_biases" : 213,
      "name" : "input.285",
      "has_batch_norm" : 0,
      "type" : "convolution",
      "n_groups" : 1,
      "pad_t" : 3,
      "has_biases" : 1,
      "C" : 128,
      "bottom" : "input.281",
      "weights" : {

      },
      "Nx" : 1,
      "pad_mode" : 0,
      "pad_value" : 0,
      "Ny" : 7,
      "n_parallel" : 1
    },
    {
      "weights" : {

      },
      "debug_info" : "input.287",
      "top" : "input.287",
      "type" : "concat",
      "name" : "input.287",
      "bottom" : "x0.15,x1.15"
    },
    {
      "pad_r" : 0,
      "fused_relu" : 0,
      "fused_tanh" : 0,
      "debug_info" : "938",
      "pad_fill_mode" : 0,
      "pad_b" : 0,
      "pad_l" : 0,
      "top" : "938",
      "blob_weights" : 219,
      "K" : 256,
      "blob_biases" : 217,
      "name" : "938",
      "has_batch_norm" : 0,
      "type" : "convolution",
      "n_groups" : 1,
      "pad_t" : 0,
      "has_biases" : 1,
      "C" : 896,
      "bottom" : "input.287",
      "weights" : {

      },
      "Nx" : 1,
      "pad_mode" : 0,
      "pad_value" : 0,
      "Ny" : 1,
      "n_parallel" : 1
    },
    {
      "bottom" : "938,input.265",
      "alpha" : 1,
      "operation" : 0,
      "weights" : {

      },
      "fused_relu" : 0,
      "debug_info" : "input.289",
      "top" : "input.289",
      "type" : "elementwise",
      "name" : "input.289",
      "beta" : 0
    },
    {
      "bottom" : "input.289",
      "weights" : {

      },
      "mode" : 0,
      "debug_info" : "input.291",
      "top" : "input.291",
      "type" : "activation",
      "name" : "input.291"
    },
    {
      "pad_r" : 0,
      "fused_relu" : 1,
      "fused_tanh" : 0,
      "debug_info" : "input.295",
      "pad_fill_mode" : 0,
      "pad_b" : 0,
      "pad_l" : 0,
      "top" : "x0.17",
      "blob_weights" : 223,
      "K" : 896,
      "blob_biases" : 221,
      "name" : "input.295",
      "has_batch_norm" : 0,
      "type" : "convolution",
      "n_groups" : 1,
      "pad_t" : 0,
      "has_biases" : 1,
      "C" : 128,
      "bottom" : "input.291",
      "weights" : {

      },
      "Nx" : 1,
      "pad_mode" : 0,
      "pad_value" : 0,
      "Ny" : 1,
      "n_parallel" : 1
    },
    {
      "pad_r" : 0,
      "fused_relu" : 1,
      "fused_tanh" : 0,
      "debug_info" : "input.299",
      "pad_fill_mode" : 0,
      "pad_b" : 0,
      "pad_l" : 0,
      "top" : "input.301",
      "blob_weights" : 227,
      "K" : 896,
      "blob_biases" : 225,
      "name" : "input.299",
      "has_batch_norm" : 0,
      "type" : "convolution",
      "n_groups" : 1,
      "pad_t" : 0,
      "has_biases" : 1,
      "C" : 128,
      "bottom" : "input.291",
      "weights" : {

      },
      "Nx" : 1,
      "pad_mode" : 0,
      "pad_value" : 0,
      "Ny" : 1,
      "n_parallel" : 1
    },
    {
      "pad_r" : 3,
      "fused_relu" : 1,
      "fused_tanh" : 0,
      "debug_info" : "input.305",
      "pad_fill_mode" : 0,
      "pad_b" : 0,
      "pad_l" : 3,
      "top" : "input.307",
      "blob_weights" : 231,
      "K" : 128,
      "blob_biases" : 229,
      "name" : "input.305",
      "has_batch_norm" : 0,
      "type" : "convolution",
      "n_groups" : 1,
      "pad_t" : 0,
      "has_biases" : 1,
      "C" : 128,
      "bottom" : "input.301",
      "weights" : {

      },
      "Nx" : 7,
      "pad_mode" : 0,
      "pad_value" : 0,
      "Ny" : 1,
      "n_parallel" : 1
    },
    {
      "pad_r" : 0,
      "fused_relu" : 1,
      "fused_tanh" : 0,
      "debug_info" : "input.311",
      "pad_fill_mode" : 0,
      "pad_b" : 3,
      "pad_l" : 0,
      "top" : "x1.17",
      "blob_weights" : 235,
      "K" : 128,
      "blob_biases" : 233,
      "name" : "input.311",
      "has_batch_norm" : 0,
      "type" : "convolution",
      "n_groups" : 1,
      "pad_t" : 3,
      "has_biases" : 1,
      "C" : 128,
      "bottom" : "input.307",
      "weights" : {

      },
      "Nx" : 1,
      "pad_mode" : 0,
      "pad_value" : 0,
      "Ny" : 7,
      "n_parallel" : 1
    },
    {
      "weights" : {

      },
      "debug_info" : "input.313",
      "top" : "input.313",
      "type" : "concat",
      "name" : "input.313",
      "bottom" : "x0.17,x1.17"
    },
    {
      "pad_r" : 0,
      "fused_relu" : 0,
      "fused_tanh" : 0,
      "debug_info" : "1013",
      "pad_fill_mode" : 0,
      "pad_b" : 0,
      "pad_l" : 0,
      "top" : "1013",
      "blob_weights" : 239,
      "K" : 256,
      "blob_biases" : 237,
      "name" : "1013",
      "has_batch_norm" : 0,
      "type" : "convolution",
      "n_groups" : 1,
      "pad_t" : 0,
      "has_biases" : 1,
      "C" : 896,
      "bottom" : "input.313",
      "weights" : {

      },
      "Nx" : 1,
      "pad_mode" : 0,
      "pad_value" : 0,
      "Ny" : 1,
      "n_parallel" : 1
    },
    {
      "bottom" : "1013,input.291",
      "alpha" : 1,
      "operation" : 0,
      "weights" : {

      },
      "fused_relu" : 0,
      "debug_info" : "input.315",
      "top" : "input.315",
      "type" : "elementwise",
      "name" : "input.315",
      "beta" : 0
    },
    {
      "bottom" : "input.315",
      "weights" : {

      },
      "mode" : 0,
      "debug_info" : "input.317",
      "top" : "input.317",
      "type" : "activation",
      "name" : "input.317"
    },
    {
      "pad_r" : 0,
      "fused_relu" : 1,
      "fused_tanh" : 0,
      "debug_info" : "input.321",
      "pad_fill_mode" : 0,
      "pad_b" : 0,
      "pad_l" : 0,
      "top" : "x0.19",
      "blob_weights" : 243,
      "K" : 896,
      "blob_biases" : 241,
      "name" : "input.321",
      "has_batch_norm" : 0,
      "type" : "convolution",
      "n_groups" : 1,
      "pad_t" : 0,
      "has_biases" : 1,
      "C" : 128,
      "bottom" : "input.317",
      "weights" : {

      },
      "Nx" : 1,
      "pad_mode" : 0,
      "pad_value" : 0,
      "Ny" : 1,
      "n_parallel" : 1
    },
    {
      "pad_r" : 0,
      "fused_relu" : 1,
      "fused_tanh" : 0,
      "debug_info" : "input.325",
      "pad_fill_mode" : 0,
      "pad_b" : 0,
      "pad_l" : 0,
      "top" : "input.327",
      "blob_weights" : 247,
      "K" : 896,
      "blob_biases" : 245,
      "name" : "input.325",
      "has_batch_norm" : 0,
      "type" : "convolution",
      "n_groups" : 1,
      "pad_t" : 0,
      "has_biases" : 1,
      "C" : 128,
      "bottom" : "input.317",
      "weights" : {

      },
      "Nx" : 1,
      "pad_mode" : 0,
      "pad_value" : 0,
      "Ny" : 1,
      "n_parallel" : 1
    },
    {
      "pad_r" : 3,
      "fused_relu" : 1,
      "fused_tanh" : 0,
      "debug_info" : "input.331",
      "pad_fill_mode" : 0,
      "pad_b" : 0,
      "pad_l" : 3,
      "top" : "input.333",
      "blob_weights" : 251,
      "K" : 128,
      "blob_biases" : 249,
      "name" : "input.331",
      "has_batch_norm" : 0,
      "type" : "convolution",
      "n_groups" : 1,
      "pad_t" : 0,
      "has_biases" : 1,
      "C" : 128,
      "bottom" : "input.327",
      "weights" : {

      },
      "Nx" : 7,
      "pad_mode" : 0,
      "pad_value" : 0,
      "Ny" : 1,
      "n_parallel" : 1
    },
    {
      "pad_r" : 0,
      "fused_relu" : 1,
      "fused_tanh" : 0,
      "debug_info" : "input.337",
      "pad_fill_mode" : 0,
      "pad_b" : 3,
      "pad_l" : 0,
      "top" : "x1.19",
      "blob_weights" : 255,
      "K" : 128,
      "blob_biases" : 253,
      "name" : "input.337",
      "has_batch_norm" : 0,
      "type" : "convolution",
      "n_groups" : 1,
      "pad_t" : 3,
      "has_biases" : 1,
      "C" : 128,
      "bottom" : "input.333",
      "weights" : {

      },
      "Nx" : 1,
      "pad_mode" : 0,
      "pad_value" : 0,
      "Ny" : 7,
      "n_parallel" : 1
    },
    {
      "weights" : {

      },
      "debug_info" : "input.339",
      "top" : "input.339",
      "type" : "concat",
      "name" : "input.339",
      "bottom" : "x0.19,x1.19"
    },
    {
      "pad_r" : 0,
      "fused_relu" : 0,
      "fused_tanh" : 0,
      "debug_info" : "1088",
      "pad_fill_mode" : 0,
      "pad_b" : 0,
      "pad_l" : 0,
      "top" : "1088",
      "blob_weights" : 259,
      "K" : 256,
      "blob_biases" : 257,
      "name" : "1088",
      "has_batch_norm" : 0,
      "type" : "convolution",
      "n_groups" : 1,
      "pad_t" : 0,
      "has_biases" : 1,
      "C" : 896,
      "bottom" : "input.339",
      "weights" : {

      },
      "Nx" : 1,
      "pad_mode" : 0,
      "pad_value" : 0,
      "Ny" : 1,
      "n_parallel" : 1
    },
    {
      "bottom" : "1088,input.317",
      "alpha" : 1,
      "operation" : 0,
      "weights" : {

      },
      "fused_relu" : 0,
      "debug_info" : "input.341",
      "top" : "input.341",
      "type" : "elementwise",
      "name" : "input.341",
      "beta" : 0
    },
    {
      "bottom" : "input.341",
      "weights" : {

      },
      "mode" : 0,
      "debug_info" : "input.343",
      "top" : "input.343",
      "type" : "activation",
      "name" : "input.343"
    },
    {
      "pad_r" : 0,
      "fused_relu" : 1,
      "fused_tanh" : 0,
      "debug_info" : "input.347",
      "pad_fill_mode" : 0,
      "pad_b" : 0,
      "pad_l" : 0,
      "top" : "x0.21",
      "blob_weights" : 263,
      "K" : 896,
      "blob_biases" : 261,
      "name" : "input.347",
      "has_batch_norm" : 0,
      "type" : "convolution",
      "n_groups" : 1,
      "pad_t" : 0,
      "has_biases" : 1,
      "C" : 128,
      "bottom" : "input.343",
      "weights" : {

      },
      "Nx" : 1,
      "pad_mode" : 0,
      "pad_value" : 0,
      "Ny" : 1,
      "n_parallel" : 1
    },
    {
      "pad_r" : 0,
      "fused_relu" : 1,
      "fused_tanh" : 0,
      "debug_info" : "input.351",
      "pad_fill_mode" : 0,
      "pad_b" : 0,
      "pad_l" : 0,
      "top" : "input.353",
      "blob_weights" : 267,
      "K" : 896,
      "blob_biases" : 265,
      "name" : "input.351",
      "has_batch_norm" : 0,
      "type" : "convolution",
      "n_groups" : 1,
      "pad_t" : 0,
      "has_biases" : 1,
      "C" : 128,
      "bottom" : "input.343",
      "weights" : {

      },
      "Nx" : 1,
      "pad_mode" : 0,
      "pad_value" : 0,
      "Ny" : 1,
      "n_parallel" : 1
    },
    {
      "pad_r" : 3,
      "fused_relu" : 1,
      "fused_tanh" : 0,
      "debug_info" : "input.357",
      "pad_fill_mode" : 0,
      "pad_b" : 0,
      "pad_l" : 3,
      "top" : "input.359",
      "blob_weights" : 271,
      "K" : 128,
      "blob_biases" : 269,
      "name" : "input.357",
      "has_batch_norm" : 0,
      "type" : "convolution",
      "n_groups" : 1,
      "pad_t" : 0,
      "has_biases" : 1,
      "C" : 128,
      "bottom" : "input.353",
      "weights" : {

      },
      "Nx" : 7,
      "pad_mode" : 0,
      "pad_value" : 0,
      "Ny" : 1,
      "n_parallel" : 1
    },
    {
      "pad_r" : 0,
      "fused_relu" : 1,
      "fused_tanh" : 0,
      "debug_info" : "input.363",
      "pad_fill_mode" : 0,
      "pad_b" : 3,
      "pad_l" : 0,
      "top" : "x1.21",
      "blob_weights" : 275,
      "K" : 128,
      "blob_biases" : 273,
      "name" : "input.363",
      "has_batch_norm" : 0,
      "type" : "convolution",
      "n_groups" : 1,
      "pad_t" : 3,
      "has_biases" : 1,
      "C" : 128,
      "bottom" : "input.359",
      "weights" : {

      },
      "Nx" : 1,
      "pad_mode" : 0,
      "pad_value" : 0,
      "Ny" : 7,
      "n_parallel" : 1
    },
    {
      "weights" : {

      },
      "debug_info" : "input.365",
      "top" : "input.365",
      "type" : "concat",
      "name" : "input.365",
      "bottom" : "x0.21,x1.21"
    },
    {
      "pad_r" : 0,
      "fused_relu" : 0,
      "fused_tanh" : 0,
      "debug_info" : "1163",
      "pad_fill_mode" : 0,
      "pad_b" : 0,
      "pad_l" : 0,
      "top" : "1163",
      "blob_weights" : 279,
      "K" : 256,
      "blob_biases" : 277,
      "name" : "1163",
      "has_batch_norm" : 0,
      "type" : "convolution",
      "n_groups" : 1,
      "pad_t" : 0,
      "has_biases" : 1,
      "C" : 896,
      "bottom" : "input.365",
      "weights" : {

      },
      "Nx" : 1,
      "pad_mode" : 0,
      "pad_value" : 0,
      "Ny" : 1,
      "n_parallel" : 1
    },
    {
      "bottom" : "1163,input.343",
      "alpha" : 1,
      "operation" : 0,
      "weights" : {

      },
      "fused_relu" : 0,
      "debug_info" : "input.367",
      "top" : "input.367",
      "type" : "elementwise",
      "name" : "input.367",
      "beta" : 0
    },
    {
      "bottom" : "input.367",
      "weights" : {

      },
      "mode" : 0,
      "debug_info" : "input.369",
      "top" : "input.369",
      "type" : "activation",
      "name" : "input.369"
    },
    {
      "pad_r" : 0,
      "fused_relu" : 1,
      "fused_tanh" : 0,
      "debug_info" : "input.373",
      "pad_fill_mode" : 0,
      "pad_b" : 0,
      "pad_l" : 0,
      "top" : "x0.23",
      "blob_weights" : 283,
      "K" : 896,
      "blob_biases" : 281,
      "name" : "input.373",
      "has_batch_norm" : 0,
      "type" : "convolution",
      "n_groups" : 1,
      "pad_t" : 0,
      "has_biases" : 1,
      "C" : 128,
      "bottom" : "input.369",
      "weights" : {

      },
      "Nx" : 1,
      "pad_mode" : 0,
      "pad_value" : 0,
      "Ny" : 1,
      "n_parallel" : 1
    },
    {
      "pad_r" : 0,
      "fused_relu" : 1,
      "fused_tanh" : 0,
      "debug_info" : "input.377",
      "pad_fill_mode" : 0,
      "pad_b" : 0,
      "pad_l" : 0,
      "top" : "input.379",
      "blob_weights" : 287,
      "K" : 896,
      "blob_biases" : 285,
      "name" : "input.377",
      "has_batch_norm" : 0,
      "type" : "convolution",
      "n_groups" : 1,
      "pad_t" : 0,
      "has_biases" : 1,
      "C" : 128,
      "bottom" : "input.369",
      "weights" : {

      },
      "Nx" : 1,
      "pad_mode" : 0,
      "pad_value" : 0,
      "Ny" : 1,
      "n_parallel" : 1
    },
    {
      "pad_r" : 3,
      "fused_relu" : 1,
      "fused_tanh" : 0,
      "debug_info" : "input.383",
      "pad_fill_mode" : 0,
      "pad_b" : 0,
      "pad_l" : 3,
      "top" : "input.385",
      "blob_weights" : 291,
      "K" : 128,
      "blob_biases" : 289,
      "name" : "input.383",
      "has_batch_norm" : 0,
      "type" : "convolution",
      "n_groups" : 1,
      "pad_t" : 0,
      "has_biases" : 1,
      "C" : 128,
      "bottom" : "input.379",
      "weights" : {

      },
      "Nx" : 7,
      "pad_mode" : 0,
      "pad_value" : 0,
      "Ny" : 1,
      "n_parallel" : 1
    },
    {
      "pad_r" : 0,
      "fused_relu" : 1,
      "fused_tanh" : 0,
      "debug_info" : "input.389",
      "pad_fill_mode" : 0,
      "pad_b" : 3,
      "pad_l" : 0,
      "top" : "x1.23",
      "blob_weights" : 295,
      "K" : 128,
      "blob_biases" : 293,
      "name" : "input.389",
      "has_batch_norm" : 0,
      "type" : "convolution",
      "n_groups" : 1,
      "pad_t" : 3,
      "has_biases" : 1,
      "C" : 128,
      "bottom" : "input.385",
      "weights" : {

      },
      "Nx" : 1,
      "pad_mode" : 0,
      "pad_value" : 0,
      "Ny" : 7,
      "n_parallel" : 1
    },
    {
      "weights" : {

      },
      "debug_info" : "input.391",
      "top" : "input.391",
      "type" : "concat",
      "name" : "input.391",
      "bottom" : "x0.23,x1.23"
    },
    {
      "pad_r" : 0,
      "fused_relu" : 0,
      "fused_tanh" : 0,
      "debug_info" : "1238",
      "pad_fill_mode" : 0,
      "pad_b" : 0,
      "pad_l" : 0,
      "top" : "1238",
      "blob_weights" : 299,
      "K" : 256,
      "blob_biases" : 297,
      "name" : "1238",
      "has_batch_norm" : 0,
      "type" : "convolution",
      "n_groups" : 1,
      "pad_t" : 0,
      "has_biases" : 1,
      "C" : 896,
      "bottom" : "input.391",
      "weights" : {

      },
      "Nx" : 1,
      "pad_mode" : 0,
      "pad_value" : 0,
      "Ny" : 1,
      "n_parallel" : 1
    },
    {
      "bottom" : "1238,input.369",
      "alpha" : 1,
      "operation" : 0,
      "weights" : {

      },
      "fused_relu" : 0,
      "debug_info" : "input.393",
      "top" : "input.393",
      "type" : "elementwise",
      "name" : "input.393",
      "beta" : 0
    },
    {
      "bottom" : "input.393",
      "weights" : {

      },
      "mode" : 0,
      "debug_info" : "input.395",
      "top" : "input.395",
      "type" : "activation",
      "name" : "input.395"
    },
    {
      "pad_r" : 0,
      "fused_relu" : 1,
      "fused_tanh" : 0,
      "debug_info" : "input.399",
      "pad_fill_mode" : 0,
      "pad_b" : 0,
      "pad_l" : 0,
      "top" : "x0.25",
      "blob_weights" : 303,
      "K" : 896,
      "blob_biases" : 301,
      "name" : "input.399",
      "has_batch_norm" : 0,
      "type" : "convolution",
      "n_groups" : 1,
      "pad_t" : 0,
      "has_biases" : 1,
      "C" : 128,
      "bottom" : "input.395",
      "weights" : {

      },
      "Nx" : 1,
      "pad_mode" : 0,
      "pad_value" : 0,
      "Ny" : 1,
      "n_parallel" : 1
    },
    {
      "pad_r" : 0,
      "fused_relu" : 1,
      "fused_tanh" : 0,
      "debug_info" : "input.403",
      "pad_fill_mode" : 0,
      "pad_b" : 0,
      "pad_l" : 0,
      "top" : "input.405",
      "blob_weights" : 307,
      "K" : 896,
      "blob_biases" : 305,
      "name" : "input.403",
      "has_batch_norm" : 0,
      "type" : "convolution",
      "n_groups" : 1,
      "pad_t" : 0,
      "has_biases" : 1,
      "C" : 128,
      "bottom" : "input.395",
      "weights" : {

      },
      "Nx" : 1,
      "pad_mode" : 0,
      "pad_value" : 0,
      "Ny" : 1,
      "n_parallel" : 1
    },
    {
      "pad_r" : 3,
      "fused_relu" : 1,
      "fused_tanh" : 0,
      "debug_info" : "input.409",
      "pad_fill_mode" : 0,
      "pad_b" : 0,
      "pad_l" : 3,
      "top" : "input.411",
      "blob_weights" : 311,
      "K" : 128,
      "blob_biases" : 309,
      "name" : "input.409",
      "has_batch_norm" : 0,
      "type" : "convolution",
      "n_groups" : 1,
      "pad_t" : 0,
      "has_biases" : 1,
      "C" : 128,
      "bottom" : "input.405",
      "weights" : {

      },
      "Nx" : 7,
      "pad_mode" : 0,
      "pad_value" : 0,
      "Ny" : 1,
      "n_parallel" : 1
    },
    {
      "pad_r" : 0,
      "fused_relu" : 1,
      "fused_tanh" : 0,
      "debug_info" : "input.415",
      "pad_fill_mode" : 0,
      "pad_b" : 3,
      "pad_l" : 0,
      "top" : "x1.25",
      "blob_weights" : 315,
      "K" : 128,
      "blob_biases" : 313,
      "name" : "input.415",
      "has_batch_norm" : 0,
      "type" : "convolution",
      "n_groups" : 1,
      "pad_t" : 3,
      "has_biases" : 1,
      "C" : 128,
      "bottom" : "input.411",
      "weights" : {

      },
      "Nx" : 1,
      "pad_mode" : 0,
      "pad_value" : 0,
      "Ny" : 7,
      "n_parallel" : 1
    },
    {
      "weights" : {

      },
      "debug_info" : "input.417",
      "top" : "input.417",
      "type" : "concat",
      "name" : "input.417",
      "bottom" : "x0.25,x1.25"
    },
    {
      "pad_r" : 0,
      "fused_relu" : 0,
      "fused_tanh" : 0,
      "debug_info" : "1313",
      "pad_fill_mode" : 0,
      "pad_b" : 0,
      "pad_l" : 0,
      "top" : "1313",
      "blob_weights" : 319,
      "K" : 256,
      "blob_biases" : 317,
      "name" : "1313",
      "has_batch_norm" : 0,
      "type" : "convolution",
      "n_groups" : 1,
      "pad_t" : 0,
      "has_biases" : 1,
      "C" : 896,
      "bottom" : "input.417",
      "weights" : {

      },
      "Nx" : 1,
      "pad_mode" : 0,
      "pad_value" : 0,
      "Ny" : 1,
      "n_parallel" : 1
    },
    {
      "bottom" : "1313,input.395",
      "alpha" : 1,
      "operation" : 0,
      "weights" : {

      },
      "fused_relu" : 0,
      "debug_info" : "input.419",
      "top" : "input.419",
      "type" : "elementwise",
      "name" : "input.419",
      "beta" : 0
    },
    {
      "bottom" : "input.419",
      "weights" : {

      },
      "mode" : 0,
      "debug_info" : "input.421",
      "top" : "input.421",
      "type" : "activation",
      "name" : "input.421"
    },
    {
      "pad_r" : 0,
      "fused_relu" : 1,
      "fused_tanh" : 0,
      "debug_info" : "input.425",
      "pad_fill_mode" : 0,
      "pad_b" : 0,
      "pad_l" : 0,
      "top" : "x0.27",
      "blob_weights" : 323,
      "K" : 896,
      "blob_biases" : 321,
      "name" : "input.425",
      "has_batch_norm" : 0,
      "type" : "convolution",
      "n_groups" : 1,
      "pad_t" : 0,
      "has_biases" : 1,
      "C" : 128,
      "bottom" : "input.421",
      "weights" : {

      },
      "Nx" : 1,
      "pad_mode" : 0,
      "pad_value" : 0,
      "Ny" : 1,
      "n_parallel" : 1
    },
    {
      "pad_r" : 0,
      "fused_relu" : 1,
      "fused_tanh" : 0,
      "debug_info" : "input.429",
      "pad_fill_mode" : 0,
      "pad_b" : 0,
      "pad_l" : 0,
      "top" : "input.431",
      "blob_weights" : 327,
      "K" : 896,
      "blob_biases" : 325,
      "name" : "input.429",
      "has_batch_norm" : 0,
      "type" : "convolution",
      "n_groups" : 1,
      "pad_t" : 0,
      "has_biases" : 1,
      "C" : 128,
      "bottom" : "input.421",
      "weights" : {

      },
      "Nx" : 1,
      "pad_mode" : 0,
      "pad_value" : 0,
      "Ny" : 1,
      "n_parallel" : 1
    },
    {
      "pad_r" : 3,
      "fused_relu" : 1,
      "fused_tanh" : 0,
      "debug_info" : "input.435",
      "pad_fill_mode" : 0,
      "pad_b" : 0,
      "pad_l" : 3,
      "top" : "input.437",
      "blob_weights" : 331,
      "K" : 128,
      "blob_biases" : 329,
      "name" : "input.435",
      "has_batch_norm" : 0,
      "type" : "convolution",
      "n_groups" : 1,
      "pad_t" : 0,
      "has_biases" : 1,
      "C" : 128,
      "bottom" : "input.431",
      "weights" : {

      },
      "Nx" : 7,
      "pad_mode" : 0,
      "pad_value" : 0,
      "Ny" : 1,
      "n_parallel" : 1
    },
    {
      "pad_r" : 0,
      "fused_relu" : 1,
      "fused_tanh" : 0,
      "debug_info" : "input.441",
      "pad_fill_mode" : 0,
      "pad_b" : 3,
      "pad_l" : 0,
      "top" : "x1.27",
      "blob_weights" : 335,
      "K" : 128,
      "blob_biases" : 333,
      "name" : "input.441",
      "has_batch_norm" : 0,
      "type" : "convolution",
      "n_groups" : 1,
      "pad_t" : 3,
      "has_biases" : 1,
      "C" : 128,
      "bottom" : "input.437",
      "weights" : {

      },
      "Nx" : 1,
      "pad_mode" : 0,
      "pad_value" : 0,
      "Ny" : 7,
      "n_parallel" : 1
    },
    {
      "weights" : {

      },
      "debug_info" : "input.443",
      "top" : "input.443",
      "type" : "concat",
      "name" : "input.443",
      "bottom" : "x0.27,x1.27"
    },
    {
      "pad_r" : 0,
      "fused_relu" : 0,
      "fused_tanh" : 0,
      "debug_info" : "1388",
      "pad_fill_mode" : 0,
      "pad_b" : 0,
      "pad_l" : 0,
      "top" : "1388",
      "blob_weights" : 339,
      "K" : 256,
      "blob_biases" : 337,
      "name" : "1388",
      "has_batch_norm" : 0,
      "type" : "convolution",
      "n_groups" : 1,
      "pad_t" : 0,
      "has_biases" : 1,
      "C" : 896,
      "bottom" : "input.443",
      "weights" : {

      },
      "Nx" : 1,
      "pad_mode" : 0,
      "pad_value" : 0,
      "Ny" : 1,
      "n_parallel" : 1
    },
    {
      "bottom" : "1388,input.421",
      "alpha" : 1,
      "operation" : 0,
      "weights" : {

      },
      "fused_relu" : 0,
      "debug_info" : "input.445",
      "top" : "input.445",
      "type" : "elementwise",
      "name" : "input.445",
      "beta" : 0
    },
    {
      "bottom" : "input.445",
      "weights" : {

      },
      "mode" : 0,
      "debug_info" : "input.447",
      "top" : "input.447",
      "type" : "activation",
      "name" : "input.447"
    },
    {
      "pad_r" : 0,
      "fused_relu" : 1,
      "fused_tanh" : 0,
      "debug_info" : "input.451",
      "pad_fill_mode" : 0,
      "pad_b" : 0,
      "pad_l" : 0,
      "top" : "x0.29",
      "blob_weights" : 343,
      "K" : 896,
      "blob_biases" : 341,
      "name" : "input.451",
      "has_batch_norm" : 0,
      "type" : "convolution",
      "n_groups" : 1,
      "pad_t" : 0,
      "has_biases" : 1,
      "C" : 128,
      "bottom" : "input.447",
      "weights" : {

      },
      "Nx" : 1,
      "pad_mode" : 0,
      "pad_value" : 0,
      "Ny" : 1,
      "n_parallel" : 1
    },
    {
      "pad_r" : 0,
      "fused_relu" : 1,
      "fused_tanh" : 0,
      "debug_info" : "input.455",
      "pad_fill_mode" : 0,
      "pad_b" : 0,
      "pad_l" : 0,
      "top" : "input.457",
      "blob_weights" : 347,
      "K" : 896,
      "blob_biases" : 345,
      "name" : "input.455",
      "has_batch_norm" : 0,
      "type" : "convolution",
      "n_groups" : 1,
      "pad_t" : 0,
      "has_biases" : 1,
      "C" : 128,
      "bottom" : "input.447",
      "weights" : {

      },
      "Nx" : 1,
      "pad_mode" : 0,
      "pad_value" : 0,
      "Ny" : 1,
      "n_parallel" : 1
    },
    {
      "pad_r" : 3,
      "fused_relu" : 1,
      "fused_tanh" : 0,
      "debug_info" : "input.461",
      "pad_fill_mode" : 0,
      "pad_b" : 0,
      "pad_l" : 3,
      "top" : "input.463",
      "blob_weights" : 351,
      "K" : 128,
      "blob_biases" : 349,
      "name" : "input.461",
      "has_batch_norm" : 0,
      "type" : "convolution",
      "n_groups" : 1,
      "pad_t" : 0,
      "has_biases" : 1,
      "C" : 128,
      "bottom" : "input.457",
      "weights" : {

      },
      "Nx" : 7,
      "pad_mode" : 0,
      "pad_value" : 0,
      "Ny" : 1,
      "n_parallel" : 1
    },
    {
      "pad_r" : 0,
      "fused_relu" : 1,
      "fused_tanh" : 0,
      "debug_info" : "input.467",
      "pad_fill_mode" : 0,
      "pad_b" : 3,
      "pad_l" : 0,
      "top" : "x1.29",
      "blob_weights" : 355,
      "K" : 128,
      "blob_biases" : 353,
      "name" : "input.467",
      "has_batch_norm" : 0,
      "type" : "convolution",
      "n_groups" : 1,
      "pad_t" : 3,
      "has_biases" : 1,
      "C" : 128,
      "bottom" : "input.463",
      "weights" : {

      },
      "Nx" : 1,
      "pad_mode" : 0,
      "pad_value" : 0,
      "Ny" : 7,
      "n_parallel" : 1
    },
    {
      "weights" : {

      },
      "debug_info" : "input.469",
      "top" : "input.469",
      "type" : "concat",
      "name" : "input.469",
      "bottom" : "x0.29,x1.29"
    },
    {
      "pad_r" : 0,
      "fused_relu" : 0,
      "fused_tanh" : 0,
      "debug_info" : "1463",
      "pad_fill_mode" : 0,
      "pad_b" : 0,
      "pad_l" : 0,
      "top" : "1463",
      "blob_weights" : 359,
      "K" : 256,
      "blob_biases" : 357,
      "name" : "1463",
      "has_batch_norm" : 0,
      "type" : "convolution",
      "n_groups" : 1,
      "pad_t" : 0,
      "has_biases" : 1,
      "C" : 896,
      "bottom" : "input.469",
      "weights" : {

      },
      "Nx" : 1,
      "pad_mode" : 0,
      "pad_value" : 0,
      "Ny" : 1,
      "n_parallel" : 1
    },
    {
      "bottom" : "1463,input.447",
      "alpha" : 1,
      "operation" : 0,
      "weights" : {

      },
      "fused_relu" : 0,
      "debug_info" : "input.471",
      "top" : "input.471",
      "type" : "elementwise",
      "name" : "input.471",
      "beta" : 0
    },
    {
      "bottom" : "input.471",
      "weights" : {

      },
      "mode" : 0,
      "debug_info" : "input.473",
      "top" : "input.473",
      "type" : "activation",
      "name" : "input.473"
    },
    {
      "pad_r" : 0,
      "fused_relu" : 1,
      "fused_tanh" : 0,
      "debug_info" : "input.477",
      "pad_fill_mode" : 0,
      "pad_b" : 0,
      "pad_l" : 0,
      "top" : "x0.31",
      "blob_weights" : 363,
      "K" : 896,
      "blob_biases" : 361,
      "name" : "input.477",
      "has_batch_norm" : 0,
      "type" : "convolution",
      "n_groups" : 1,
      "pad_t" : 0,
      "has_biases" : 1,
      "C" : 128,
      "bottom" : "input.473",
      "weights" : {

      },
      "Nx" : 1,
      "pad_mode" : 0,
      "pad_value" : 0,
      "Ny" : 1,
      "n_parallel" : 1
    },
    {
      "pad_r" : 0,
      "fused_relu" : 1,
      "fused_tanh" : 0,
      "debug_info" : "input.481",
      "pad_fill_mode" : 0,
      "pad_b" : 0,
      "pad_l" : 0,
      "top" : "input.483",
      "blob_weights" : 367,
      "K" : 896,
      "blob_biases" : 365,
      "name" : "input.481",
      "has_batch_norm" : 0,
      "type" : "convolution",
      "n_groups" : 1,
      "pad_t" : 0,
      "has_biases" : 1,
      "C" : 128,
      "bottom" : "input.473",
      "weights" : {

      },
      "Nx" : 1,
      "pad_mode" : 0,
      "pad_value" : 0,
      "Ny" : 1,
      "n_parallel" : 1
    },
    {
      "pad_r" : 3,
      "fused_relu" : 1,
      "fused_tanh" : 0,
      "debug_info" : "input.487",
      "pad_fill_mode" : 0,
      "pad_b" : 0,
      "pad_l" : 3,
      "top" : "input.489",
      "blob_weights" : 371,
      "K" : 128,
      "blob_biases" : 369,
      "name" : "input.487",
      "has_batch_norm" : 0,
      "type" : "convolution",
      "n_groups" : 1,
      "pad_t" : 0,
      "has_biases" : 1,
      "C" : 128,
      "bottom" : "input.483",
      "weights" : {

      },
      "Nx" : 7,
      "pad_mode" : 0,
      "pad_value" : 0,
      "Ny" : 1,
      "n_parallel" : 1
    },
    {
      "pad_r" : 0,
      "fused_relu" : 1,
      "fused_tanh" : 0,
      "debug_info" : "input.493",
      "pad_fill_mode" : 0,
      "pad_b" : 3,
      "pad_l" : 0,
      "top" : "x1.31",
      "blob_weights" : 375,
      "K" : 128,
      "blob_biases" : 373,
      "name" : "input.493",
      "has_batch_norm" : 0,
      "type" : "convolution",
      "n_groups" : 1,
      "pad_t" : 3,
      "has_biases" : 1,
      "C" : 128,
      "bottom" : "input.489",
      "weights" : {

      },
      "Nx" : 1,
      "pad_mode" : 0,
      "pad_value" : 0,
      "Ny" : 7,
      "n_parallel" : 1
    },
    {
      "weights" : {

      },
      "debug_info" : "input.495",
      "top" : "input.495",
      "type" : "concat",
      "name" : "input.495",
      "bottom" : "x0.31,x1.31"
    },
    {
      "pad_r" : 0,
      "fused_relu" : 0,
      "fused_tanh" : 0,
      "debug_info" : "1538",
      "pad_fill_mode" : 0,
      "pad_b" : 0,
      "pad_l" : 0,
      "top" : "1538",
      "blob_weights" : 379,
      "K" : 256,
      "blob_biases" : 377,
      "name" : "1538",
      "has_batch_norm" : 0,
      "type" : "convolution",
      "n_groups" : 1,
      "pad_t" : 0,
      "has_biases" : 1,
      "C" : 896,
      "bottom" : "input.495",
      "weights" : {

      },
      "Nx" : 1,
      "pad_mode" : 0,
      "pad_value" : 0,
      "Ny" : 1,
      "n_parallel" : 1
    },
    {
      "bottom" : "1538,input.473",
      "alpha" : 1,
      "operation" : 0,
      "weights" : {

      },
      "fused_relu" : 0,
      "debug_info" : "input.497",
      "top" : "input.497",
      "type" : "elementwise",
      "name" : "input.497",
      "beta" : 0
    },
    {
      "bottom" : "input.497",
      "weights" : {

      },
      "mode" : 0,
      "debug_info" : "input.499",
      "top" : "input.499",
      "type" : "activation",
      "name" : "input.499"
    },
    {
      "pad_r" : 0,
      "fused_relu" : 1,
      "fused_tanh" : 0,
      "debug_info" : "input.503",
      "pad_fill_mode" : 0,
      "pad_b" : 0,
      "pad_l" : 0,
      "top" : "input.505",
      "blob_weights" : 383,
      "K" : 896,
      "blob_biases" : 381,
      "name" : "input.503",
      "has_batch_norm" : 0,
      "type" : "convolution",
      "n_groups" : 1,
      "pad_t" : 0,
      "has_biases" : 1,
      "C" : 256,
      "bottom" : "input.499",
      "weights" : {

      },
      "Nx" : 1,
      "pad_mode" : 0,
      "pad_value" : 0,
      "Ny" : 1,
      "n_parallel" : 1
    },
    {
      "pad_r" : 0,
      "fused_relu" : 1,
      "fused_tanh" : 0,
      "debug_info" : "input.509",
      "pad_fill_mode" : 0,
      "pad_b" : 0,
      "pad_l" : 0,
      "top" : "x0.33",
      "blob_weights" : 387,
      "K" : 256,
      "blob_biases" : 385,
      "stride_x" : 2,
      "name" : "input.509",
      "has_batch_norm" : 0,
      "type" : "convolution",
      "n_groups" : 1,
      "pad_t" : 0,
      "stride_y" : 2,
      "has_biases" : 1,
      "C" : 384,
      "bottom" : "input.505",
      "weights" : {

      },
      "Nx" : 3,
      "pad_mode" : 0,
      "pad_value" : 0,
      "Ny" : 3,
      "n_parallel" : 1
    },
    {
      "pad_r" : 0,
      "fused_relu" : 1,
      "fused_tanh" : 0,
      "debug_info" : "input.513",
      "pad_fill_mode" : 0,
      "pad_b" : 0,
      "pad_l" : 0,
      "top" : "input.515",
      "blob_weights" : 391,
      "K" : 896,
      "blob_biases" : 389,
      "name" : "input.513",
      "has_batch_norm" : 0,
      "type" : "convolution",
      "n_groups" : 1,
      "pad_t" : 0,
      "has_biases" : 1,
      "C" : 256,
      "bottom" : "input.499",
      "weights" : {

      },
      "Nx" : 1,
      "pad_mode" : 0,
      "pad_value" : 0,
      "Ny" : 1,
      "n_parallel" : 1
    },
    {
      "pad_r" : 0,
      "fused_relu" : 1,
      "fused_tanh" : 0,
      "debug_info" : "input.519",
      "pad_fill_mode" : 0,
      "pad_b" : 0,
      "pad_l" : 0,
      "top" : "x1.33",
      "blob_weights" : 395,
      "K" : 256,
      "blob_biases" : 393,
      "stride_x" : 2,
      "name" : "input.519",
      "has_batch_norm" : 0,
      "type" : "convolution",
      "n_groups" : 1,
      "pad_t" : 0,
      "stride_y" : 2,
      "has_biases" : 1,
      "C" : 256,
      "bottom" : "input.515",
      "weights" : {

      },
      "Nx" : 3,
      "pad_mode" : 0,
      "pad_value" : 0,
      "Ny" : 3,
      "n_parallel" : 1
    },
    {
      "pad_r" : 0,
      "fused_relu" : 1,
      "fused_tanh" : 0,
      "debug_info" : "input.523",
      "pad_fill_mode" : 0,
      "pad_b" : 0,
      "pad_l" : 0,
      "top" : "input.525",
      "blob_weights" : 399,
      "K" : 896,
      "blob_biases" : 397,
      "name" : "input.523",
      "has_batch_norm" : 0,
      "type" : "convolution",
      "n_groups" : 1,
      "pad_t" : 0,
      "has_biases" : 1,
      "C" : 256,
      "bottom" : "input.499",
      "weights" : {

      },
      "Nx" : 1,
      "pad_mode" : 0,
      "pad_value" : 0,
      "Ny" : 1,
      "n_parallel" : 1
    },
    {
      "pad_r" : 1,
      "fused_relu" : 1,
      "fused_tanh" : 0,
      "debug_info" : "input.529",
      "pad_fill_mode" : 0,
      "pad_b" : 1,
      "pad_l" : 1,
      "top" : "input.531",
      "blob_weights" : 403,
      "K" : 256,
      "blob_biases" : 401,
      "name" : "input.529",
      "has_batch_norm" : 0,
      "type" : "convolution",
      "n_groups" : 1,
      "pad_t" : 1,
      "has_biases" : 1,
      "C" : 256,
      "bottom" : "input.525",
      "weights" : {

      },
      "Nx" : 3,
      "pad_mode" : 0,
      "pad_value" : 0,
      "Ny" : 3,
      "n_parallel" : 1
    },
    {
      "pad_r" : 0,
      "fused_relu" : 1,
      "fused_tanh" : 0,
      "debug_info" : "input.535",
      "pad_fill_mode" : 0,
      "pad_b" : 0,
      "pad_l" : 0,
      "top" : "x2",
      "blob_weights" : 407,
      "K" : 256,
      "blob_biases" : 405,
      "stride_x" : 2,
      "name" : "input.535",
      "has_batch_norm" : 0,
      "type" : "convolution",
      "n_groups" : 1,
      "pad_t" : 0,
      "stride_y" : 2,
      "has_biases" : 1,
      "C" : 256,
      "bottom" : "input.531",
      "weights" : {

      },
      "Nx" : 3,
      "pad_mode" : 0,
      "pad_value" : 0,
      "Ny" : 3,
      "n_parallel" : 1
    },
    {
      "pad_r" : 0,
      "debug_info" : "x3",
      "pad_fill_mode" : 0,
      "pad_b" : 0,
      "pad_l" : 0,
      "size_x" : 3,
      "top" : "x3",
      "top_shape_style" : 0,
      "stride_x" : 2,
      "avg_or_max" : 1,
      "average_count_exclude_padding" : 1,
      "type" : "pool",
      "name" : "x3",
      "pad_t" : 0,
      "stride_y" : 2,
      "bottom" : "input.499",
      "weights" : {

      },
      "pad_mode" : 2,
      "size_y" : 3,
      "pad_value" : 0
    },
    {
      "weights" : {

      },
      "debug_info" : "input.537",
      "top" : "input.537",
      "type" : "concat",
      "name" : "input.537",
      "bottom" : "x0.33,x1.33,x2,x3"
    },
    {
      "pad_r" : 0,
      "fused_relu" : 1,
      "fused_tanh" : 0,
      "debug_info" : "input.541",
      "pad_fill_mode" : 0,
      "pad_b" : 0,
      "pad_l" : 0,
      "top" : "x0.35",
      "blob_weights" : 411,
      "K" : 1792,
      "blob_biases" : 409,
      "name" : "input.541",
      "has_batch_norm" : 0,
      "type" : "convolution",
      "n_groups" : 1,
      "pad_t" : 0,
      "has_biases" : 1,
      "C" : 192,
      "bottom" : "input.537",
      "weights" : {

      },
      "Nx" : 1,
      "pad_mode" : 0,
      "pad_value" : 0,
      "Ny" : 1,
      "n_parallel" : 1
    },
    {
      "pad_r" : 0,
      "fused_relu" : 1,
      "fused_tanh" : 0,
      "debug_info" : "input.545",
      "pad_fill_mode" : 0,
      "pad_b" : 0,
      "pad_l" : 0,
      "top" : "input.547",
      "blob_weights" : 415,
      "K" : 1792,
      "blob_biases" : 413,
      "name" : "input.545",
      "has_batch_norm" : 0,
      "type" : "convolution",
      "n_groups" : 1,
      "pad_t" : 0,
      "has_biases" : 1,
      "C" : 192,
      "bottom" : "input.537",
      "weights" : {

      },
      "Nx" : 1,
      "pad_mode" : 0,
      "pad_value" : 0,
      "Ny" : 1,
      "n_parallel" : 1
    },
    {
      "pad_r" : 1,
      "fused_relu" : 1,
      "fused_tanh" : 0,
      "debug_info" : "input.551",
      "pad_fill_mode" : 0,
      "pad_b" : 0,
      "pad_l" : 1,
      "top" : "input.553",
      "blob_weights" : 419,
      "K" : 192,
      "blob_biases" : 417,
      "name" : "input.551",
      "has_batch_norm" : 0,
      "type" : "convolution",
      "n_groups" : 1,
      "pad_t" : 0,
      "has_biases" : 1,
      "C" : 192,
      "bottom" : "input.547",
      "weights" : {

      },
      "Nx" : 3,
      "pad_mode" : 0,
      "pad_value" : 0,
      "Ny" : 1,
      "n_parallel" : 1
    },
    {
      "pad_r" : 0,
      "fused_relu" : 1,
      "fused_tanh" : 0,
      "debug_info" : "input.557",
      "pad_fill_mode" : 0,
      "pad_b" : 1,
      "pad_l" : 0,
      "top" : "x1.35",
      "blob_weights" : 423,
      "K" : 192,
      "blob_biases" : 421,
      "name" : "input.557",
      "has_batch_norm" : 0,
      "type" : "convolution",
      "n_groups" : 1,
      "pad_t" : 1,
      "has_biases" : 1,
      "C" : 192,
      "bottom" : "input.553",
      "weights" : {

      },
      "Nx" : 1,
      "pad_mode" : 0,
      "pad_value" : 0,
      "Ny" : 3,
      "n_parallel" : 1
    },
    {
      "weights" : {

      },
      "debug_info" : "input.559",
      "top" : "input.559",
      "type" : "concat",
      "name" : "input.559",
      "bottom" : "x0.35,x1.35"
    },
    {
      "pad_r" : 0,
      "fused_relu" : 0,
      "fused_tanh" : 0,
      "debug_info" : "1749",
      "pad_fill_mode" : 0,
      "pad_b" : 0,
      "pad_l" : 0,
      "top" : "1749",
      "blob_weights" : 427,
      "K" : 384,
      "blob_biases" : 425,
      "name" : "1749",
      "has_batch_norm" : 0,
      "type" : "convolution",
      "n_groups" : 1,
      "pad_t" : 0,
      "has_biases" : 1,
      "C" : 1792,
      "bottom" : "input.559",
      "weights" : {

      },
      "Nx" : 1,
      "pad_mode" : 0,
      "pad_value" : 0,
      "Ny" : 1,
      "n_parallel" : 1
    },
    {
      "bottom" : "1749,input.537",
      "alpha" : 1,
      "operation" : 0,
      "weights" : {

      },
      "fused_relu" : 0,
      "debug_info" : "input.561",
      "top" : "input.561",
      "type" : "elementwise",
      "name" : "input.561",
      "beta" : 0
    },
    {
      "bottom" : "input.561",
      "weights" : {

      },
      "mode" : 0,
      "debug_info" : "input.563",
      "top" : "input.563",
      "type" : "activation",
      "name" : "input.563"
    },
    {
      "pad_r" : 0,
      "fused_relu" : 1,
      "fused_tanh" : 0,
      "debug_info" : "input.567",
      "pad_fill_mode" : 0,
      "pad_b" : 0,
      "pad_l" : 0,
      "top" : "x0.37",
      "blob_weights" : 431,
      "K" : 1792,
      "blob_biases" : 429,
      "name" : "input.567",
      "has_batch_norm" : 0,
      "type" : "convolution",
      "n_groups" : 1,
      "pad_t" : 0,
      "has_biases" : 1,
      "C" : 192,
      "bottom" : "input.563",
      "weights" : {

      },
      "Nx" : 1,
      "pad_mode" : 0,
      "pad_value" : 0,
      "Ny" : 1,
      "n_parallel" : 1
    },
    {
      "pad_r" : 0,
      "fused_relu" : 1,
      "fused_tanh" : 0,
      "debug_info" : "input.571",
      "pad_fill_mode" : 0,
      "pad_b" : 0,
      "pad_l" : 0,
      "top" : "input.573",
      "blob_weights" : 435,
      "K" : 1792,
      "blob_biases" : 433,
      "name" : "input.571",
      "has_batch_norm" : 0,
      "type" : "convolution",
      "n_groups" : 1,
      "pad_t" : 0,
      "has_biases" : 1,
      "C" : 192,
      "bottom" : "input.563",
      "weights" : {

      },
      "Nx" : 1,
      "pad_mode" : 0,
      "pad_value" : 0,
      "Ny" : 1,
      "n_parallel" : 1
    },
    {
      "pad_r" : 1,
      "fused_relu" : 1,
      "fused_tanh" : 0,
      "debug_info" : "input.577",
      "pad_fill_mode" : 0,
      "pad_b" : 0,
      "pad_l" : 1,
      "top" : "input.579",
      "blob_weights" : 439,
      "K" : 192,
      "blob_biases" : 437,
      "name" : "input.577",
      "has_batch_norm" : 0,
      "type" : "convolution",
      "n_groups" : 1,
      "pad_t" : 0,
      "has_biases" : 1,
      "C" : 192,
      "bottom" : "input.573",
      "weights" : {

      },
      "Nx" : 3,
      "pad_mode" : 0,
      "pad_value" : 0,
      "Ny" : 1,
      "n_parallel" : 1
    },
    {
      "pad_r" : 0,
      "fused_relu" : 1,
      "fused_tanh" : 0,
      "debug_info" : "input.583",
      "pad_fill_mode" : 0,
      "pad_b" : 1,
      "pad_l" : 0,
      "top" : "x1.37",
      "blob_weights" : 443,
      "K" : 192,
      "blob_biases" : 441,
      "name" : "input.583",
      "has_batch_norm" : 0,
      "type" : "convolution",
      "n_groups" : 1,
      "pad_t" : 1,
      "has_biases" : 1,
      "C" : 192,
      "bottom" : "input.579",
      "weights" : {

      },
      "Nx" : 1,
      "pad_mode" : 0,
      "pad_value" : 0,
      "Ny" : 3,
      "n_parallel" : 1
    },
    {
      "weights" : {

      },
      "debug_info" : "input.585",
      "top" : "input.585",
      "type" : "concat",
      "name" : "input.585",
      "bottom" : "x0.37,x1.37"
    },
    {
      "pad_r" : 0,
      "fused_relu" : 0,
      "fused_tanh" : 0,
      "debug_info" : "1824",
      "pad_fill_mode" : 0,
      "pad_b" : 0,
      "pad_l" : 0,
      "top" : "1824",
      "blob_weights" : 447,
      "K" : 384,
      "blob_biases" : 445,
      "name" : "1824",
      "has_batch_norm" : 0,
      "type" : "convolution",
      "n_groups" : 1,
      "pad_t" : 0,
      "has_biases" : 1,
      "C" : 1792,
      "bottom" : "input.585",
      "weights" : {

      },
      "Nx" : 1,
      "pad_mode" : 0,
      "pad_value" : 0,
      "Ny" : 1,
      "n_parallel" : 1
    },
    {
      "bottom" : "1824,input.563",
      "alpha" : 1,
      "operation" : 0,
      "weights" : {

      },
      "fused_relu" : 0,
      "debug_info" : "input.587",
      "top" : "input.587",
      "type" : "elementwise",
      "name" : "input.587",
      "beta" : 0
    },
    {
      "bottom" : "input.587",
      "weights" : {

      },
      "mode" : 0,
      "debug_info" : "input.589",
      "top" : "input.589",
      "type" : "activation",
      "name" : "input.589"
    },
    {
      "pad_r" : 0,
      "fused_relu" : 1,
      "fused_tanh" : 0,
      "debug_info" : "input.593",
      "pad_fill_mode" : 0,
      "pad_b" : 0,
      "pad_l" : 0,
      "top" : "x0.39",
      "blob_weights" : 451,
      "K" : 1792,
      "blob_biases" : 449,
      "name" : "input.593",
      "has_batch_norm" : 0,
      "type" : "convolution",
      "n_groups" : 1,
      "pad_t" : 0,
      "has_biases" : 1,
      "C" : 192,
      "bottom" : "input.589",
      "weights" : {

      },
      "Nx" : 1,
      "pad_mode" : 0,
      "pad_value" : 0,
      "Ny" : 1,
      "n_parallel" : 1
    },
    {
      "pad_r" : 0,
      "fused_relu" : 1,
      "fused_tanh" : 0,
      "debug_info" : "input.597",
      "pad_fill_mode" : 0,
      "pad_b" : 0,
      "pad_l" : 0,
      "top" : "input.599",
      "blob_weights" : 455,
      "K" : 1792,
      "blob_biases" : 453,
      "name" : "input.597",
      "has_batch_norm" : 0,
      "type" : "convolution",
      "n_groups" : 1,
      "pad_t" : 0,
      "has_biases" : 1,
      "C" : 192,
      "bottom" : "input.589",
      "weights" : {

      },
      "Nx" : 1,
      "pad_mode" : 0,
      "pad_value" : 0,
      "Ny" : 1,
      "n_parallel" : 1
    },
    {
      "pad_r" : 1,
      "fused_relu" : 1,
      "fused_tanh" : 0,
      "debug_info" : "input.603",
      "pad_fill_mode" : 0,
      "pad_b" : 0,
      "pad_l" : 1,
      "top" : "input.605",
      "blob_weights" : 459,
      "K" : 192,
      "blob_biases" : 457,
      "name" : "input.603",
      "has_batch_norm" : 0,
      "type" : "convolution",
      "n_groups" : 1,
      "pad_t" : 0,
      "has_biases" : 1,
      "C" : 192,
      "bottom" : "input.599",
      "weights" : {

      },
      "Nx" : 3,
      "pad_mode" : 0,
      "pad_value" : 0,
      "Ny" : 1,
      "n_parallel" : 1
    },
    {
      "pad_r" : 0,
      "fused_relu" : 1,
      "fused_tanh" : 0,
      "debug_info" : "input.609",
      "pad_fill_mode" : 0,
      "pad_b" : 1,
      "pad_l" : 0,
      "top" : "x1.39",
      "blob_weights" : 463,
      "K" : 192,
      "blob_biases" : 461,
      "name" : "input.609",
      "has_batch_norm" : 0,
      "type" : "convolution",
      "n_groups" : 1,
      "pad_t" : 1,
      "has_biases" : 1,
      "C" : 192,
      "bottom" : "input.605",
      "weights" : {

      },
      "Nx" : 1,
      "pad_mode" : 0,
      "pad_value" : 0,
      "Ny" : 3,
      "n_parallel" : 1
    },
    {
      "weights" : {

      },
      "debug_info" : "input.611",
      "top" : "input.611",
      "type" : "concat",
      "name" : "input.611",
      "bottom" : "x0.39,x1.39"
    },
    {
      "pad_r" : 0,
      "fused_relu" : 0,
      "fused_tanh" : 0,
      "debug_info" : "1899",
      "pad_fill_mode" : 0,
      "pad_b" : 0,
      "pad_l" : 0,
      "top" : "1899",
      "blob_weights" : 467,
      "K" : 384,
      "blob_biases" : 465,
      "name" : "1899",
      "has_batch_norm" : 0,
      "type" : "convolution",
      "n_groups" : 1,
      "pad_t" : 0,
      "has_biases" : 1,
      "C" : 1792,
      "bottom" : "input.611",
      "weights" : {

      },
      "Nx" : 1,
      "pad_mode" : 0,
      "pad_value" : 0,
      "Ny" : 1,
      "n_parallel" : 1
    },
    {
      "bottom" : "1899,input.589",
      "alpha" : 1,
      "operation" : 0,
      "weights" : {

      },
      "fused_relu" : 0,
      "debug_info" : "input.613",
      "top" : "input.613",
      "type" : "elementwise",
      "name" : "input.613",
      "beta" : 0
    },
    {
      "bottom" : "input.613",
      "weights" : {

      },
      "mode" : 0,
      "debug_info" : "input.615",
      "top" : "input.615",
      "type" : "activation",
      "name" : "input.615"
    },
    {
      "pad_r" : 0,
      "fused_relu" : 1,
      "fused_tanh" : 0,
      "debug_info" : "input.619",
      "pad_fill_mode" : 0,
      "pad_b" : 0,
      "pad_l" : 0,
      "top" : "x0.41",
      "blob_weights" : 471,
      "K" : 1792,
      "blob_biases" : 469,
      "name" : "input.619",
      "has_batch_norm" : 0,
      "type" : "convolution",
      "n_groups" : 1,
      "pad_t" : 0,
      "has_biases" : 1,
      "C" : 192,
      "bottom" : "input.615",
      "weights" : {

      },
      "Nx" : 1,
      "pad_mode" : 0,
      "pad_value" : 0,
      "Ny" : 1,
      "n_parallel" : 1
    },
    {
      "pad_r" : 0,
      "fused_relu" : 1,
      "fused_tanh" : 0,
      "debug_info" : "input.623",
      "pad_fill_mode" : 0,
      "pad_b" : 0,
      "pad_l" : 0,
      "top" : "input.625",
      "blob_weights" : 475,
      "K" : 1792,
      "blob_biases" : 473,
      "name" : "input.623",
      "has_batch_norm" : 0,
      "type" : "convolution",
      "n_groups" : 1,
      "pad_t" : 0,
      "has_biases" : 1,
      "C" : 192,
      "bottom" : "input.615",
      "weights" : {

      },
      "Nx" : 1,
      "pad_mode" : 0,
      "pad_value" : 0,
      "Ny" : 1,
      "n_parallel" : 1
    },
    {
      "pad_r" : 1,
      "fused_relu" : 1,
      "fused_tanh" : 0,
      "debug_info" : "input.629",
      "pad_fill_mode" : 0,
      "pad_b" : 0,
      "pad_l" : 1,
      "top" : "input.631",
      "blob_weights" : 479,
      "K" : 192,
      "blob_biases" : 477,
      "name" : "input.629",
      "has_batch_norm" : 0,
      "type" : "convolution",
      "n_groups" : 1,
      "pad_t" : 0,
      "has_biases" : 1,
      "C" : 192,
      "bottom" : "input.625",
      "weights" : {

      },
      "Nx" : 3,
      "pad_mode" : 0,
      "pad_value" : 0,
      "Ny" : 1,
      "n_parallel" : 1
    },
    {
      "pad_r" : 0,
      "fused_relu" : 1,
      "fused_tanh" : 0,
      "debug_info" : "input.635",
      "pad_fill_mode" : 0,
      "pad_b" : 1,
      "pad_l" : 0,
      "top" : "x1.41",
      "blob_weights" : 483,
      "K" : 192,
      "blob_biases" : 481,
      "name" : "input.635",
      "has_batch_norm" : 0,
      "type" : "convolution",
      "n_groups" : 1,
      "pad_t" : 1,
      "has_biases" : 1,
      "C" : 192,
      "bottom" : "input.631",
      "weights" : {

      },
      "Nx" : 1,
      "pad_mode" : 0,
      "pad_value" : 0,
      "Ny" : 3,
      "n_parallel" : 1
    },
    {
      "weights" : {

      },
      "debug_info" : "input.637",
      "top" : "input.637",
      "type" : "concat",
      "name" : "input.637",
      "bottom" : "x0.41,x1.41"
    },
    {
      "pad_r" : 0,
      "fused_relu" : 0,
      "fused_tanh" : 0,
      "debug_info" : "1974",
      "pad_fill_mode" : 0,
      "pad_b" : 0,
      "pad_l" : 0,
      "top" : "1974",
      "blob_weights" : 487,
      "K" : 384,
      "blob_biases" : 485,
      "name" : "1974",
      "has_batch_norm" : 0,
      "type" : "convolution",
      "n_groups" : 1,
      "pad_t" : 0,
      "has_biases" : 1,
      "C" : 1792,
      "bottom" : "input.637",
      "weights" : {

      },
      "Nx" : 1,
      "pad_mode" : 0,
      "pad_value" : 0,
      "Ny" : 1,
      "n_parallel" : 1
    },
    {
      "bottom" : "1974,input.615",
      "alpha" : 1,
      "operation" : 0,
      "weights" : {

      },
      "fused_relu" : 0,
      "debug_info" : "input.639",
      "top" : "input.639",
      "type" : "elementwise",
      "name" : "input.639",
      "beta" : 0
    },
    {
      "bottom" : "input.639",
      "weights" : {

      },
      "mode" : 0,
      "debug_info" : "input.641",
      "top" : "input.641",
      "type" : "activation",
      "name" : "input.641"
    },
    {
      "pad_r" : 0,
      "fused_relu" : 1,
      "fused_tanh" : 0,
      "debug_info" : "input.645",
      "pad_fill_mode" : 0,
      "pad_b" : 0,
      "pad_l" : 0,
      "top" : "x0.43",
      "blob_weights" : 491,
      "K" : 1792,
      "blob_biases" : 489,
      "name" : "input.645",
      "has_batch_norm" : 0,
      "type" : "convolution",
      "n_groups" : 1,
      "pad_t" : 0,
      "has_biases" : 1,
      "C" : 192,
      "bottom" : "input.641",
      "weights" : {

      },
      "Nx" : 1,
      "pad_mode" : 0,
      "pad_value" : 0,
      "Ny" : 1,
      "n_parallel" : 1
    },
    {
      "pad_r" : 0,
      "fused_relu" : 1,
      "fused_tanh" : 0,
      "debug_info" : "input.649",
      "pad_fill_mode" : 0,
      "pad_b" : 0,
      "pad_l" : 0,
      "top" : "input.651",
      "blob_weights" : 495,
      "K" : 1792,
      "blob_biases" : 493,
      "name" : "input.649",
      "has_batch_norm" : 0,
      "type" : "convolution",
      "n_groups" : 1,
      "pad_t" : 0,
      "has_biases" : 1,
      "C" : 192,
      "bottom" : "input.641",
      "weights" : {

      },
      "Nx" : 1,
      "pad_mode" : 0,
      "pad_value" : 0,
      "Ny" : 1,
      "n_parallel" : 1
    },
    {
      "pad_r" : 1,
      "fused_relu" : 1,
      "fused_tanh" : 0,
      "debug_info" : "input.655",
      "pad_fill_mode" : 0,
      "pad_b" : 0,
      "pad_l" : 1,
      "top" : "input.657",
      "blob_weights" : 499,
      "K" : 192,
      "blob_biases" : 497,
      "name" : "input.655",
      "has_batch_norm" : 0,
      "type" : "convolution",
      "n_groups" : 1,
      "pad_t" : 0,
      "has_biases" : 1,
      "C" : 192,
      "bottom" : "input.651",
      "weights" : {

      },
      "Nx" : 3,
      "pad_mode" : 0,
      "pad_value" : 0,
      "Ny" : 1,
      "n_parallel" : 1
    },
    {
      "pad_r" : 0,
      "fused_relu" : 1,
      "fused_tanh" : 0,
      "debug_info" : "input.661",
      "pad_fill_mode" : 0,
      "pad_b" : 1,
      "pad_l" : 0,
      "top" : "x1.43",
      "blob_weights" : 503,
      "K" : 192,
      "blob_biases" : 501,
      "name" : "input.661",
      "has_batch_norm" : 0,
      "type" : "convolution",
      "n_groups" : 1,
      "pad_t" : 1,
      "has_biases" : 1,
      "C" : 192,
      "bottom" : "input.657",
      "weights" : {

      },
      "Nx" : 1,
      "pad_mode" : 0,
      "pad_value" : 0,
      "Ny" : 3,
      "n_parallel" : 1
    },
    {
      "weights" : {

      },
      "debug_info" : "input.663",
      "top" : "input.663",
      "type" : "concat",
      "name" : "input.663",
      "bottom" : "x0.43,x1.43"
    },
    {
      "pad_r" : 0,
      "fused_relu" : 0,
      "fused_tanh" : 0,
      "debug_info" : "2049",
      "pad_fill_mode" : 0,
      "pad_b" : 0,
      "pad_l" : 0,
      "top" : "2049",
      "blob_weights" : 507,
      "K" : 384,
      "blob_biases" : 505,
      "name" : "2049",
      "has_batch_norm" : 0,
      "type" : "convolution",
      "n_groups" : 1,
      "pad_t" : 0,
      "has_biases" : 1,
      "C" : 1792,
      "bottom" : "input.663",
      "weights" : {

      },
      "Nx" : 1,
      "pad_mode" : 0,
      "pad_value" : 0,
      "Ny" : 1,
      "n_parallel" : 1
    },
    {
      "bottom" : "2049,input.641",
      "alpha" : 1,
      "operation" : 0,
      "weights" : {

      },
      "fused_relu" : 0,
      "debug_info" : "input.665",
      "top" : "input.665",
      "type" : "elementwise",
      "name" : "input.665",
      "beta" : 0
    },
    {
      "bottom" : "input.665",
      "weights" : {

      },
      "mode" : 0,
      "debug_info" : "input.667",
      "top" : "input.667",
      "type" : "activation",
      "name" : "input.667"
    },
    {
      "pad_r" : 0,
      "fused_relu" : 1,
      "fused_tanh" : 0,
      "debug_info" : "input.671",
      "pad_fill_mode" : 0,
      "pad_b" : 0,
      "pad_l" : 0,
      "top" : "x0",
      "blob_weights" : 511,
      "K" : 1792,
      "blob_biases" : 509,
      "name" : "input.671",
      "has_batch_norm" : 0,
      "type" : "convolution",
      "n_groups" : 1,
      "pad_t" : 0,
      "has_biases" : 1,
      "C" : 192,
      "bottom" : "input.667",
      "weights" : {

      },
      "Nx" : 1,
      "pad_mode" : 0,
      "pad_value" : 0,
      "Ny" : 1,
      "n_parallel" : 1
    },
    {
      "pad_r" : 0,
      "fused_relu" : 1,
      "fused_tanh" : 0,
      "debug_info" : "input.675",
      "pad_fill_mode" : 0,
      "pad_b" : 0,
      "pad_l" : 0,
      "top" : "input.677",
      "blob_weights" : 515,
      "K" : 1792,
      "blob_biases" : 513,
      "name" : "input.675",
      "has_batch_norm" : 0,
      "type" : "convolution",
      "n_groups" : 1,
      "pad_t" : 0,
      "has_biases" : 1,
      "C" : 192,
      "bottom" : "input.667",
      "weights" : {

      },
      "Nx" : 1,
      "pad_mode" : 0,
      "pad_value" : 0,
      "Ny" : 1,
      "n_parallel" : 1
    },
    {
      "pad_r" : 1,
      "fused_relu" : 1,
      "fused_tanh" : 0,
      "debug_info" : "input.681",
      "pad_fill_mode" : 0,
      "pad_b" : 0,
      "pad_l" : 1,
      "top" : "input.683",
      "blob_weights" : 519,
      "K" : 192,
      "blob_biases" : 517,
      "name" : "input.681",
      "has_batch_norm" : 0,
      "type" : "convolution",
      "n_groups" : 1,
      "pad_t" : 0,
      "has_biases" : 1,
      "C" : 192,
      "bottom" : "input.677",
      "weights" : {

      },
      "Nx" : 3,
      "pad_mode" : 0,
      "pad_value" : 0,
      "Ny" : 1,
      "n_parallel" : 1
    },
    {
      "pad_r" : 0,
      "fused_relu" : 1,
      "fused_tanh" : 0,
      "debug_info" : "input.687",
      "pad_fill_mode" : 0,
      "pad_b" : 1,
      "pad_l" : 0,
      "top" : "x1",
      "blob_weights" : 523,
      "K" : 192,
      "blob_biases" : 521,
      "name" : "input.687",
      "has_batch_norm" : 0,
      "type" : "convolution",
      "n_groups" : 1,
      "pad_t" : 1,
      "has_biases" : 1,
      "C" : 192,
      "bottom" : "input.683",
      "weights" : {

      },
      "Nx" : 1,
      "pad_mode" : 0,
      "pad_value" : 0,
      "Ny" : 3,
      "n_parallel" : 1
    },
    {
      "weights" : {

      },
      "debug_info" : "input.689",
      "top" : "input.689",
      "type" : "concat",
      "name" : "input.689",
      "bottom" : "x0,x1"
    },
    {
      "pad_r" : 0,
      "fused_relu" : 0,
      "fused_tanh" : 0,
      "debug_info" : "out",
      "pad_fill_mode" : 0,
      "pad_b" : 0,
      "pad_l" : 0,
      "top" : "out",
      "blob_weights" : 527,
      "K" : 384,
      "blob_biases" : 525,
      "name" : "out",
      "has_batch_norm" : 0,
      "type" : "convolution",
      "n_groups" : 1,
      "pad_t" : 0,
      "has_biases" : 1,
      "C" : 1792,
      "bottom" : "input.689",
      "weights" : {

      },
      "Nx" : 1,
      "pad_mode" : 0,
      "pad_value" : 0,
      "Ny" : 1,
      "n_parallel" : 1
    },
    {
      "bottom" : "out,input.667",
      "alpha" : 1,
      "operation" : 0,
      "weights" : {

      },
      "fused_relu" : 0,
      "debug_info" : "input.691",
      "top" : "input.691",
      "type" : "elementwise",
      "name" : "input.691",
      "beta" : 0
    },
    {
      "pad_r" : 0,
      "debug_info" : "input.693",
      "pad_fill_mode" : 0,
      "pad_b" : 0,
      "pad_l" : 0,
      "size_x" : 3,
      "is_global" : 1,
      "top" : "input.693",
      "top_shape_style" : 0,
      "stride_x" : 1,
      "avg_or_max" : 0,
      "average_count_exclude_padding" : 1,
      "type" : "pool",
      "name" : "input.693",
      "pad_t" : 0,
      "stride_y" : 1,
      "bottom" : "input.691",
      "weights" : {

      },
      "pad_mode" : 2,
      "size_y" : 3,
      "pad_value" : 0
    },
    {
      "name" : "input.695",
      "weights" : {

      },
      "dst_w" : -1,
      "version" : 1,
      "dst_n" : 1,
      "dst_nd_rank" : 2,
      "type" : "reshape",
      "dst_h" : 1,
      "mode" : 0,
      "dynamic_shape" : false,
      "bottom" : "input.693",
      "debug_info" : "input.695",
      "dst_seq" : 1,
      "dst_k" : 1,
      "top" : "input.695"
    },
    {
      "nB" : 1792,
      "top" : "input.697",
      "has_biases" : 1,
      "weights" : {

      },
      "nC" : 512,
      "blob_weights" : 531,
      "type" : "inner_product",
      "has_relu" : 0,
      "bottom" : "input.695",
      "blob_biases" : 529,
      "has_tanh" : 0,
      "debug_info" : "linear_0",
      "name" : "linear_0",
      "has_prelu" : 0
    },
    {
      "size_of_axes" : 1,
      "bottom" : "input.697",
      "axes_0" : -1,
      "weights" : {

      },
      "nd_axis" : 0,
      "debug_info" : "input_rank2_expansion",
      "top" : "input_rank2_expansion",
      "type" : "expand_dims",
      "name" : "input_rank2_expansion"
    },
    {
      "size_of_axes" : 1,
      "bottom" : "input_rank2_expansion",
      "axes_0" : -2,
      "weights" : {

      },
      "nd_axis" : 0,
      "debug_info" : "input_batch_norm_1d_expanded",
      "top" : "input_batch_norm_1d_expanded",
      "type" : "expand_dims",
      "name" : "input_batch_norm_1d_expanded"
    },
    {
      "name" : "input_batch_norm_1d",
      "bottom" : "input_batch_norm_1d_expanded",
      "weights" : {

      },
      "debug_info" : "input_batch_norm_1d",
      "top" : "input_batch_norm_1d_batch_norm",
      "C" : 512,
      "blob_batchnorm_params" : 533,
      "type" : "batchnorm"
    },
    {
      "size_of_axes" : 1,
      "bottom" : "input_batch_norm_1d_batch_norm",
      "axes_0" : -2,
      "weights" : {

      },
      "nd_axis" : 0,
      "debug_info" : "input_batch_norm_1d_squeeze",
      "version" : 1,
      "top" : "input_batch_norm_1d",
      "type" : "squeeze",
      "name" : "input_batch_norm_1d_squeeze"
    },
    {
      "size_of_axes" : 1,
      "bottom" : "input_batch_norm_1d",
      "axes_0" : -1,
      "weights" : {

      },
      "nd_axis" : 0,
      "debug_info" : "input",
      "version" : 1,
      "top" : "input_1",
      "type" : "squeeze",
      "name" : "input"
    },
    {
      "axis_mode" : 1,
      "bottom" : "input_1",
      "weights" : {

      },
      "mode" : 5,
      "nd_axis" : 1,
      "nd_mode" : true,
      "debug_info" : "2163",
      "use_version" : 1,
      "top" : "2163",
      "type" : "reduce",
      "name" : "2163"
    },
    {
      "top" : "2164",
      "w" : 1,
      "h" : 1,
      "name" : "2164",
      "nd_rank" : 1,
      "type" : "load_constant",
      "k" : 1,
      "bottom" : "",
      "debug_info" : "2164",
      "n" : 1,
      "weights" : {

      },
      "constant_blob" : 535
    },
    {
      "bottom" : "2163,2164",
      "alpha" : 1,
      "operation" : 23,
      "weights" : {

      },
      "fused_relu" : 0,
      "debug_info" : "2165",
      "nd_mode" : true,
      "top" : "2165",
      "type" : "elementwise",
      "name" : "2165",
      "beta" : 0
    },
    {
      "name" : "denom",
      "bottom" : "2165",
      "dst_n" : 1,
      "dst_seq" : 1,
      "weights" : {

      },
      "dst_k" : 1,
      "debug_info" : "denom",
      "top" : "denom",
      "dst_h" : 1,
      "dst_w" : 512,
      "type" : "tile"
    },
    {
      "name" : "var_2167",
      "fused_relu" : 0,
      "beta" : 0,
      "operation" : 102,
      "type" : "elementwise",
      "alpha" : 1,
      "attributes" : {
        "is_output" : 1
      },
      "bottom" : "input_1,denom",
      "debug_info" : "var_2167",
      "nd_mode" : true,
      "weights" : {

      },
      "top" : "var_2167"
    }
  ]
}